FJSP/network/10x10/best_value/mch_alloc_policy.pth (torch, 273778 bytes, 14 tensors)

bn.weight f4 [128]
0	0x3f80085f	1.0002555
1	0x3f7d5531	0.98958117
2	0x3f80e698	1.0070372
3	0x3f803362	1.0015681
4	0x3f7e75fa	0.9939877
5	0x3f7fff23	0.9999868
6	0x3f8019cc	1.0007873
7	0x3f7f00ae	0.9961041
8	0x3f811b1d	1.0086399
9	0x3f80e385	1.0069433
10	0x3f814ff5	1.0102526
11	0x3f8075c3	1.0035938
12	0x3f7d65f5	0.989837
13	0x3f7d66f3	0.98985213
14	0x3f7e9f1c	0.9946153
15	0x3f7f9410	0.998353
16	0x3f80f511	1.0074788
17	0x3f80cfa6	1.0063369
18	0x3f80ca3d	1.0061718
19	0x3f7f568e	0.99741447
20	0x3f8061ec	1.0029883
21	0x3f7f0bdd	0.99627477
22	0x3f7f78db	0.99793786
23	0x3f81149f	1.0084418
24	0x3f809b80	1.0047455
25	0x3f80d60b	1.0065321
26	0x3f804d90	1.002367
27	0x3f80388d	1.0017258
28	0x3f7f2666	0.99667966
29	0x3f7cc8fa	0.98744166
30	0x3f80521b	1.0025057
31	0x3f810fba	1.0082924
32	0x3f7f2a86	0.9967426
33	0x3f801e25	1.0009199
34	0x3f80efc8	1.0073175
35	0x3f7ff906	0.99989355
36	0x3f800256	1.0000713
37	0x3f7f8d7d	0.9982527
38	0x3f7f9b3f	0.9984626
39	0x3f8090bd	1.0044171
40	0x3f7efaab	0.9960124
41	0x3f7ff654	0.9998524
42	0x3f801243	1.0005573
43	0x3f803498	1.001605
44	0x3f8095a5	1.0045668
45	0x3f80e77b	1.0070642
46	0x3f8008c9	1.0002681
47	0x3f809c20	1.0047646
48	0x3f7f8775	0.99816066
49	0x3f7f7639	0.9978977
50	0x3f80a16f	1.0049266
51	0x3f7e0158	0.992208
52	0x3f812bfb	1.0091547
53	0x3f801be6	1.0008514
54	0x3f80c1bb	1.0059122
55	0x3f7f5684	0.9974139
56	0x3f7f2d52	0.9967853
57	0x3f7d39d8	0.9891639
58	0x3f81b16e	1.0132272
59	0x3f80652b	1.0030874
60	0x3f802a9b	1.0013002
61	0x3f7f7d02	0.9980012
62	0x3f7f00b0	0.99610424
63	0x3f7e7c1f	0.99408144
64	0x3f80a213	1.0049461
65	0x3f7f4869	0.99719864
66	0x3f7ed275	0.9953988
67	0x3f7f50a7	0.9973244
68	0x3f807502	1.0035708
69	0x3f7d8a49	0.9903913
70	0x3f7ebca6	0.99506605
71	0x3f805609	1.0026256
72	0x3f814472	1.0099013
73	0x3f7f2981	0.99672705
74	0x3f80906e	1.0044076
75	0x3f8094c7	1.0045403
76	0x3f7f59be	0.9974631
77	0x3f80bd72	1.0057814
78	0x3f7dff8d	0.99218065
79	0x3f802139	1.0010139
80	0x3f7feb15	0.9996808
81	0x3f80317f	1.0015105
82	0x3f800b82	1.0003512
83	0x3f7fd67f	0.9993667
84	0x3f80e767	1.0070618
85	0x3f7fe956	0.9996542
86	0x3f7fa0a8	0.99854517
87	0x3f80a088	1.004899
88	0x3f7fbfb0	0.99901867
89	0x3f7d9efe	0.9907073
90	0x3f80db81	1.0066987
91	0x3f805bcf	1.0028018
92	0x3f808446	1.0040367
93	0x3f7fe4ba	0.99958384
94	0x3f7dd799	0.991571
95	0x3f8137fb	1.0095209
96	0x3f7f71a6	0.9978279
97	0x3f8005f4	1.0001817
98	0x3f80e50e	1.0069902
99	0x3f7d971c	0.990587
100	0x3f805c87	1.0028237
101	0x3f7ec95a	0.9952599
102	0x3f7dea11	0.9918528
103	0x3f7f1b7b	0.99651307
104	0x3f8198b7	1.012473
105	0x3f7f6c86	0.9977497
106	0x3f7df149	0.99196297
107	0x3f801d90	1.0009022
108	0x3f808d3e	1.0043104
109	0x3f7ceb40	0.98796463
110	0x3f81391e	1.0095556
111	0x3f7fbe33	0.99899596
112	0x3f7e07c3	0.99230593
113	0x3f805cf8	1.0028372
114	0x3f7fc223	0.99905604
115	0x3f7e9faa	0.9946238
116	0x3f7ecfd6	0.9953588
117	0x3f811a54	1.008616
118	0x3f7da068	0.99072886
119	0x3f801ed3	1.0009407
120	0x3f7feb6a	0.9996859
121	0x3f812d69	1.0091983
122	0x3f7d560f	0.9895944
123	0x3f7f2b42	0.9967538
124	0x3f7e631a	0.99369967
125	0x3f8076d9	1.003627
126	0x3f810cdb	1.0082048
127	0x3f7f86a8	0.99814844

bn.bias f4 [128]
0	0x3b44682d	0.002996932
1	0xbbf5f05d	-0.00750546
2	0x39c63e51	0.00037811932
3	0x3bef971c	0.007311715
4	0xbb0b74c1	-0.0021279308
5	0x3b870106	0.004119995
6	0xbc1184d1	-0.008881764
7	0xbbaf97d7	-0.005358677
8	0xbbe2a206	-0.0069162874
9	0x383fc621	4.572247e-05
10	0x3b977bfb	0.004622934
11	0xba0dc21c	-0.00054076477
12	0xb946dd87	-0.00018965277
13	0xbc712622	-0.014718564
14	0xbc59b13f	-0.013286888
15	0xb996a857	-0.00028735652
16	0xb9d68290	-0.00040914537
17	0xbc2299e4	-0.009924386
18	0x3b8f7d60	0.0043789595
19	0xbc29fd43	-0.010375324
20	0xbb921fad	-0.0044593425
21	0x3b47b44a	0.003047245
22	0xbb9c6198	-0.0047723763
23	0x3bc814ae	0.006105981
24	0xbc4281d6	-0.011871776
25	0x3b27c3f8	0.0025598984
26	0xbc0adbc3	-0.008475247
27	0xb91b729b	-0.00014824646
28	0xba642c4b	-0.000870411
29	0xbb8aa9d2	-0.00423167
30	0x3be4e2f4	0.0069850627
31	0xbc050886	-0.008119708
32	0xbbb4e6a9	-0.005520661
33	0xba97a6a4	-0.0011570049
34	0xbc3064fa	-0.010766262
35	0x3b87e036	0.004146601
36	0x3b32fea7	0.002731243
37	0xbbefa380	-0.007313192
38	0xbb1f528d	-0.0024310679
39	0xbb9cfa68	-0.004790593
40	0xbafb65ba	-0.0019180097
41	0x3bd06b47	0.0063604447
42	0x3b851cb9	0.004062262
43	0x3b8871a2	0.0041639367
44	0xbb83e7d1	-0.0040254374
45	0x3b904e30	0.004403852
46	0xbb0d3765	-0.002154791
47	0xbb15fd00	-0.0022886395
48	0x3bb6a495	0.005573819
49	0xbbcf47c5	-0.0063256943
50	0xba7e7117	-0.0009706183
51	0xbafa1992	-0.0019081107
52	0x3b1c1b44	0.0023819963
53	0x3bf07df4	0.0073392335
54	0xbc5a7289	-0.013332971
55	0x3c2a9471	0.010411368
56	0xbc2dd76d	-0.010610444
57	0x3a7cca2f	0.0009643165
58	0xbb03c4e6	-0.0020106374
59	0xbbf9566f	-0.0076091806
60	0xbb4fb387	-0.00316927
61	0x3bdcf46d	0.006743005
62	0x3c2a1e6d	0.010383231
63	0xbbb63d8a	-0.0055615352
64	0x3b8d149e	0.0043054363
65	0xbc2e48e9	-0.0106375
66	0x3bf62dbd	0.0075127766
67	0x3bb22660	0.0054367036
68	0xbb5b2208	-0.0033437032
69	0x3a2550fb	0.00063063175
70	0x3b5ad67d	0.0033392005
71	0xbb62ef23	-0.00346274
72	0x3ab489d8	0.0013773991
73	0x3bb1882b	0.005417844
74	0x3c4da0bf	0.012550532
75	0x3b448318	0.0029985365
76	0xbc01b577	-0.0079168
77	0xbab898fb	-0.0014083678
78	0xbbbdc7aa	-0.005791624
79	0xbaf3d7a0	-0.001860369
80	0x3b87a0b7	0.0041390317
81	0xbc269c43	-0.010169092
82	0xbbccb469	-0.0062470925
83	0x3a9c6569	0.0011932078
84	0x3b80f801	0.0039358144
85	0x3ba68ea7	0.0050829235
86	0x3bdac377	0.0066761333
87	0x3bbe86d8	0.0058144145
88	0x3b6153d0	0.0034382232
89	0xbbf712da	-0.007540089
90	0xbb75c9ce	-0.0037504318
91	0xbb453040	-0.0030088574
92	0x3b4b38f0	0.003100928
93	0xba8b0030	-0.0010604914
94	0x3bd38256	0.0064547462
95	0x3ba5b637	0.005057122
96	0x3b824d67	0.0039765122
97	0xbac24d90	-0.0014824141
98	0xbaf46c64	-0.0018648026
99	0x3bca3f24	0.0061720777
100	0x3be8e210	0.007107027
101	0x3b82ad67	0.0039879563
102	0x3c032b23	0.00800589
103	0xbbe7f56f	-0.0070788185
104	0x3aa44e1f	0.0012535489
105	0xb9976d77	-0.00028882522
106	0x3bc476b2	0.005995595
107	0xbc1c8a82	-0.009554507
108	0x3b287fce	0.0025710943
109	0xb99ca055	-0.00029874095
110	0x3841e537	4.622826e-05
111	0xbb51cbb8	-0.0032012295
112	0x3a447c6c	0.0007495347
113	0xbae3555e	-0.0017344167
114	0x3bcebe7b	0.006309328
115	0xbbbad2fa	-0.00570142
116	0xb9db2452	-0.00041797996
117	0x3b768563	0.0037616126
118	0xbbacb0de	-0.0052701076
119	0x3c1d889a	0.009615088
120	0xba7653ed	-0.0009396661
121	0xbc1726bf	-0.009225546
122	0xba93a933	-0.0011265635
123	0x38b46de3	8.603537e-05
124	0x3a9b6d0a	0.0011858058
125	0xbbca34ac	-0.0061708298
126	0x3b611fab	0.003435115
127	0x3c2fbd5f	0.010726302

bn.running_mean f4 [128]
0	0xbc866074	-0.016403414
1	0x3d083030	0.03324908
2	0x3c91fc05	0.017820368
3	0xbb80ecb1	-0.003934466
4	0xbb3ba5d1	-0.002863277
5	0xbc41c10f	-0.011825814
6	0x3c90768d	0.017634654
7	0x3ba79478	0.0051141344
8	0x3cdd8288	0.027039781
9	0xbd14ec13	-0.03635795
10	0x3cfbe127	0.03074701
11	0xbd35eda4	-0.044416085
12	0x3bd18d40	0.006395012
13	0xbd04da45	-0.03243472
14	0xbb08b1c2	-0.0020857905
15	0x3c5edab4	0.013601948
16	0x3cc0c279	0.023530232
17	0x3c47c3aa	0.012192646
18	0x3cb692ee	0.022286858
19	0x3c844480	0.016145945
20	0x3cd6d393	0.026223933
21	0x3c9d7b7d	0.019223923
22	0xbc724744	-0.014787499
23	0x3c4149f8	0.011797421
24	0x3c62cced	0.013842803
25	0xbbef9c8c	-0.007312363
26	0xba31e319	-0.00067858543
27	0xbcbb8ddd	-0.022894794
28	0x3ce929af	0.02846226
29	0x3ce369aa	0.027760345
30	0xbc809d1d	-0.015699917
31	0x3cd8a926	0.026447844
32	0x3caa4e90	0.020789415
33	0xbc952a4d	-0.018208647
34	0xbc4ebe9a	-0.012618685
35	0x3d2ed0c4	0.042679563
36	0x3c301dfc	0.010749336
37	0xbcf0a3e6	-0.029375028
38	0x3d25597c	0.040368542
39	0x38af0045	8.3447005e-05
40	0x3b9cb158	0.004781883
41	0x3c09e77a	0.008417005
42	0x3ce26f1c	0.027640872
43	0x3c46a4b2	0.012124227
44	0xbc630c39	-0.013857895
45	0xbd4f9910	-0.05068308
46	0x3cee3195	0.029076377
47	0xbc5f0b68	-0.013613559
48	0x3c9589fa	0.018254269
49	0x3bc5127a	0.0060141655
50	0xbcd022a1	-0.025407137
51	0x3bb3f566	0.0054919003
52	0xbb8eda29	-0.004359503
53	0xbca9a644	-0.020709164
54	0xbcae8eed	-0.021308387
55	0x3bf73a29	0.007544775
56	0x3d52363e	0.05132126
57	0xbd0759ea	-0.033044733
58	0xbc8be44b	-0.017076632
59	0xbcb24074	-0.02175925
60	0x3cb1f7fe	0.021724697
61	0x3cc3ec79	0.02391647
62	0xbc9c67b8	-0.019092426
63	0x3cdf04c6	0.027223956
64	0x3bc94bc7	0.0061430666
65	0xbbe2c998	-0.0069210045
66	0xbcc9181b	-0.024547627
67	0x3c613837	0.013746313
68	0x3bad4cc8	0.005288694
69	0x3c970851	0.018436583
70	0xbc7a9b0b	-0.015295754
71	0x3cbf355b	0.023340872
72	0x3ccac448	0.024751797
73	0xbcfdcf00	-0.030982494
74	0x3cc18a2c	0.023625456
75	0xbb693430	-0.0035584085
76	0xbb9bfba9	-0.004760225
77	0x3c25673c	0.010095414
78	0xbb828ed3	-0.003984311
79	0x3cd6c357	0.026216192
80	0x3c6601bf	0.014038502
81	0x3bd9314c	0.006628191
82	0x3d03af31	0.032149497
83	0x3b8cdee9	0.004299034
84	0xbcbfe467	-0.02342434
85	0xbc9a76f6	-0.018855553
86	0xbcbc7c00	-0.023008347
87	0xbc446fa2	-0.011989506
88	0x3b1265de	0.002233855
89	0xbc25f090	-0.010128155
90	0x3cea889d	0.028629595
91	0xbca1f2ef	-0.01976916
92	0xbc6d0f6f	-0.014469012
93	0xbc5ddcdf	-0.013541429
94	0x3ced34c6	0.028955828
95	0xbd0fff8f	-0.03515583
96	0x3c449598	0.011998557
97	0x3bdaf49a	0.006681991
98	0x3c8c64b7	0.017137868
99	0x3c4e9455	0.012608607
100	0xbca29072	-0.019844268
101	0xba7afaea	-0.0009574132
102	0xbc81d9d5	-0.01585094
103	0xbbc58b7f	-0.006028592
104	0xbb7d1ada	-0.003862074
105	0x3c1ae689	0.009454378
106	0xbb7387e6	-0.003715986
107	0x3c8f941c	0.017526679
108	0x3c4f7f74	0.012664665
109	0x3ccb07fc	0.02478408
110	0xbca19d8a	-0.01972844
111	0xbb63df68	-0.0034770612
112	0xbbd00601	-0.006348372
113	0x3d2a927a	0.041643597
114	0x3c728139	0.014801317
115	0xbcf8986c	-0.030346118
116	0xba76e990	-0.0009418959
117	0xbcf0ecb6	-0.029409748
118	0xbcea413d	-0.028595561
119	0xbae318cd	-0.0017326117
120	0xbc5981ec	-0.013275605
121	0x3d322ebe	0.043501608
122	0x3c855997	0.016278071
123	0x3c1ee3f7	0.009697906
124	0xbc808b9c	-0.015691571
125	0xbcb3fee8	-0.021972135
126	0x3c25756f	0.010098799
127	0xbc727cc1	-0.014800251

bn.running_var f4 [128]
0	0x3703b405	7.8501225e-06
1	0x37e02451	2.6719792e-05
2	0x374cc593	1.2205349e-05
3	0x35bcc5f5	1.4064705e-06
4	0x35990cc4	1.1403104e-06
5	0x36598250	3.2411372e-06
6	0x37116465	8.666048e-06
7	0x3753f903	1.2634558e-05
8	0x37f3ede1	2.9078628e-05
9	0x3800126d	3.053474e-05
10	0x37b685fa	2.1758478e-05
11	0x384032b3	4.5823585e-05
12	0x3580e450	9.603191e-07
13	0x37e54db6	2.7335114e-05
14	0x371fd94e	9.527734e-06
15	0x36b5c6f5	5.417382e-06
16	0x37bae173	2.227791e-05
17	0x36bb625e	5.5844857e-06
18	0x37b98562	2.211583e-05
19	0x36e5d46e	6.849462e-06
20	0x37a2d622	1.9411618e-05
21	0x3722d4df	9.705515e-06
22	0x3756976a	1.2790648e-05
23	0x365f5409	3.3278504e-06
24	0x36d93b4c	6.474007e-06
25	0x35e56be7	1.7093233e-06
26	0x36066e01	2.0031587e-06
27	0x37812293	1.5394098e-05
28	0x37ca2278	2.4096327e-05
29	0x3799c0f3	1.832887e-05
30	0x37545a21	1.26571695e-05
31	0x3788ee1a	1.6323338e-05
32	0x3822109e	3.8639286e-05
33	0x374cb147	1.2200623e-05
34	0x370d730f	8.431044e-06
35	0x38358c3d	4.328437e-05
36	0x36f28662	7.2278062e-06
37	0x37be5b51	2.2692288e-05
38	0x3872aae8	5.7856465e-05
39	0x33a6d5df	7.76888e-08
40	0x36bcd184	5.6272274e-06
41	0x36e54463	6.832693e-06
42	0x37f4aff6	2.9169005e-05
43	0x366441b6	3.4012896e-06
44	0x3727fbd9	1.00126135e-05
45	0x38984c41	7.262128e-05
46	0x38332768	4.2713626e-05
47	0x36bace23	5.5672294e-06
48	0x37da5346	2.6026402e-05
49	0x35e7e01c	1.7276066e-06
50	0x377a033a	1.4901912e-05
51	0x35848c86	9.875664e-07
52	0x34ec2a44	4.3989178e-07
53	0x3736507c	1.0866785e-05
54	0x377806eb	1.4783563e-05
55	0x373c4048	1.122064e-05
56	0x3883782b	6.26895e-05
57	0x37fd1e65	3.0174104e-05
58	0x372e4a95	1.0388573e-05
59	0x37374ba6	1.0925263e-05
60	0x3791dff2	1.738963e-05
61	0x375e2ba8	1.3242396e-05
62	0x37261e64	9.901447e-06
63	0x379aad15	1.8438828e-05
64	0x35763da5	9.1731846e-07
65	0x36825fb6	3.885444e-06
66	0x3784e3de	1.5841735e-05
67	0x379d969b	1.878599e-05
68	0x376cbb8e	1.4110365e-05
69	0x37097673	8.193415e-06
70	0x37056fd8	7.953458e-06
71	0x3773cfeb	1.4532338e-05
72	0x3771d745	1.4414841e-05
73	0x37b9bdb7	2.2142061e-05
74	0x37a187c6	1.925592e-05
75	0x370bd45a	8.334488e-06
76	0x3613d22e	2.2027048e-06
77	0x36287cbd	2.5106558e-06
78	0x34eb099f	4.377916e-07
79	0x37b6cb7f	2.1790851e-05
80	0x369a7a20	4.603775e-06
81	0x37f6f929	2.944151e-05
82	0x37f84e61	2.9600402e-05
83	0x3699124c	4.5618854e-06
84	0x3762a5a7	1.3509219e-05
85	0x378212d4	1.5505975e-05
86	0x38290860	4.030054e-05
87	0x373f8cd3	1.1417275e-05
88	0x34b2143d	3.316981e-07
89	0x361fe4db	2.3826058e-06
90	0x37b5fea4	2.1695458e-05
91	0x371f190d	9.482971e-06
92	0x37ad67bb	2.067151e-05
93	0x37073ca5	8.060747e-06
94	0x37d0163e	2.480589e-05
95	0x37f4a163	2.9162218e-05
96	0x36916adf	4.333778e-06
97	0x3609c647	2.0530003e-06
98	0x3741f7e3	1.1561412e-05
99	0x36999950	4.5776032e-06
100	0x375716fa	1.2820348e-05
101	0x34314011	1.6507717e-07
102	0x36e10904	6.706572e-06
103	0x35fed46e	1.89863e-06
104	0x34c012cb	3.577646e-07
105	0x370445e1	7.884083e-06
106	0x34dc6915	4.105465e-07
107	0x370e2364	8.4721e-06
108	0x367849cf	3.6997842e-06
109	0x3794dabf	1.7744836e-05
110	0x3719aad0	9.159281e-06
111	0x3684bbab	3.955754e-06
112	0x378e1c54	1.694091e-05
113	0x3851d796	5.0030263e-05
114	0x371d0554	9.35917e-06
115	0x37ce0351	2.4558658e-05
116	0x376979b3	1.39162175e-05
117	0x37af8d8a	2.0927535e-05
118	0x38085833	3.250707e-05
119	0x3619ed97	2.2937072e-06
120	0x37123ede	8.7169155e-06
121	0x38447b32	4.6844776e-05
122	0x36ccefb2	6.107578e-06
123	0x363e0d69	2.8320012e-06
124	0x36fe1336	7.5720263e-06
125	0x3749fcf6	1.2039431e-05
126	0x361e8745	2.3622572e-06
127	0x37b4264a	2.1475502e-05

bn1.weight f4 [128]
0	0x3f800000	1.0
1	0x3f800000	1.0
2	0x3f800000	1.0
3	0x3f800000	1.0
4	0x3f800000	1.0
5	0x3f800000	1.0
6	0x3f800000	1.0
7	0x3f800000	1.0
8	0x3f800000	1.0
9	0x3f800000	1.0
10	0x3f800000	1.0
11	0x3f800000	1.0
12	0x3f800000	1.0
13	0x3f800000	1.0
14	0x3f800000	1.0
15	0x3f800000	1.0
16	0x3f800000	1.0
17	0x3f800000	1.0
18	0x3f800000	1.0
19	0x3f800000	1.0
20	0x3f800000	1.0
21	0x3f800000	1.0
22	0x3f800000	1.0
23	0x3f800000	1.0
24	0x3f800000	1.0
25	0x3f800000	1.0
26	0x3f800000	1.0
27	0x3f800000	1.0
28	0x3f800000	1.0
29	0x3f800000	1.0
30	0x3f800000	1.0
31	0x3f800000	1.0
32	0x3f800000	1.0
33	0x3f800000	1.0
34	0x3f800000	1.0
35	0x3f800000	1.0
36	0x3f800000	1.0
37	0x3f800000	1.0
38	0x3f800000	1.0
39	0x3f800000	1.0
40	0x3f800000	1.0
41	0x3f800000	1.0
42	0x3f800000	1.0
43	0x3f800000	1.0
44	0x3f800000	1.0
45	0x3f800000	1.0
46	0x3f800000	1.0
47	0x3f800000	1.0
48	0x3f800000	1.0
49	0x3f800000	1.0
50	0x3f800000	1.0
51	0x3f800000	1.0
52	0x3f800000	1.0
53	0x3f800000	1.0
54	0x3f800000	1.0
55	0x3f800000	1.0
56	0x3f800000	1.0
57	0x3f800000	1.0
58	0x3f800000	1.0
59	0x3f800000	1.0
60	0x3f800000	1.0
61	0x3f800000	1.0
62	0x3f800000	1.0
63	0x3f800000	1.0
64	0x3f800000	1.0
65	0x3f800000	1.0
66	0x3f800000	1.0
67	0x3f800000	1.0
68	0x3f800000	1.0
69	0x3f800000	1.0
70	0x3f800000	1.0
71	0x3f800000	1.0
72	0x3f800000	1.0
73	0x3f800000	1.0
74	0x3f800000	1.0
75	0x3f800000	1.0
76	0x3f800000	1.0
77	0x3f800000	1.0
78	0x3f800000	1.0
79	0x3f800000	1.0
80	0x3f800000	1.0
81	0x3f800000	1.0
82	0x3f800000	1.0
83	0x3f800000	1.0
84	0x3f800000	1.0
85	0x3f800000	1.0
86	0x3f800000	1.0
87	0x3f800000	1.0
88	0x3f800000	1.0
89	0x3f800000	1.0
90	0x3f800000	1.0
91	0x3f800000	1.0
92	0x3f800000	1.0
93	0x3f800000	1.0
94	0x3f800000	1.0
95	0x3f800000	1.0
96	0x3f800000	1.0
97	0x3f800000	1.0
98	0x3f800000	1.0
99	0x3f800000	1.0
100	0x3f800000	1.0
101	0x3f800000	1.0
102	0x3f800000	1.0
103	0x3f800000	1.0
104	0x3f800000	1.0
105	0x3f800000	1.0
106	0x3f800000	1.0
107	0x3f800000	1.0
108	0x3f800000	1.0
109	0x3f800000	1.0
110	0x3f800000	1.0
111	0x3f800000	1.0
112	0x3f800000	1.0
113	0x3f800000	1.0
114	0x3f800000	1.0
115	0x3f800000	1.0
116	0x3f800000	1.0
117	0x3f800000	1.0
118	0x3f800000	1.0
119	0x3f800000	1.0
120	0x3f800000	1.0
121	0x3f800000	1.0
122	0x3f800000	1.0
123	0x3f800000	1.0
124	0x3f800000	1.0
125	0x3f800000	1.0
126	0x3f800000	1.0
127	0x3f800000	1.0

bn1.bias f4 [128]
0	0x00000000	0.0
1	0x00000000	0.0
2	0x00000000	0.0
3	0x00000000	0.0
4	0x00000000	0.0
5	0x00000000	0.0
6	0x00000000	0.0
7	0x00000000	0.0
8	0x00000000	0.0
9	0x00000000	0.0
10	0x00000000	0.0
11	0x00000000	0.0
12	0x00000000	0.0
13	0x00000000	0.0
14	0x00000000	0.0
15	0x00000000	0.0
16	0x00000000	0.0
17	0x00000000	0.0
18	0x00000000	0.0
19	0x00000000	0.0
20	0x00000000	0.0
21	0x00000000	0.0
22	0x00000000	0.0
23	0x00000000	0.0
24	0x00000000	0.0
25	0x00000000	0.0
26	0x00000000	0.0
27	0x00000000	0.0
28	0x00000000	0.0
29	0x00000000	0.0
30	0x00000000	0.0
31	0x00000000	0.0
32	0x00000000	0.0
33	0x00000000	0.0
34	0x00000000	0.0
35	0x00000000	0.0
36	0x00000000	0.0
37	0x00000000	0.0
38	0x00000000	0.0
39	0x00000000	0.0
40	0x00000000	0.0
41	0x00000000	0.0
42	0x00000000	0.0
43	0x00000000	0.0
44	0x00000000	0.0
45	0x00000000	0.0
46	0x00000000	0.0
47	0x00000000	0.0
48	0x00000000	0.0
49	0x00000000	0.0
50	0x00000000	0.0
51	0x00000000	0.0
52	0x00000000	0.0
53	0x00000000	0.0
54	0x00000000	0.0
55	0x00000000	0.0
56	0x00000000	0.0
57	0x00000000	0.0
58	0x00000000	0.0
59	0x00000000	0.0
60	0x00000000	0.0
61	0x00000000	0.0
62	0x00000000	0.0
63	0x00000000	0.0
64	0x00000000	0.0
65	0x00000000	0.0
66	0x00000000	0.0
67	0x00000000	0.0
68	0x00000000	0.0
69	0x00000000	0.0
70	0x00000000	0.0
71	0x00000000	0.0
72	0x00000000	0.0
73	0x00000000	0.0
74	0x00000000	0.0
75	0x00000000	0.0
76	0x00000000	0.0
77	0x00000000	0.0
78	0x00000000	0.0
79	0x00000000	0.0
80	0x00000000	0.0
81	0x00000000	0.0
82	0x00000000	0.0
83	0x00000000	0.0
84	0x00000000	0.0
85	0x00000000	0.0
86	0x00000000	0.0
87	0x00000000	0.0
88	0x00000000	0.0
89	0x00000000	0.0
90	0x00000000	0.0
91	0x00000000	0.0
92	0x00000000	0.0
93	0x00000000	0.0
94	0x00000000	0.0
95	0x00000000	0.0
96	0x00000000	0.0
97	0x00000000	0.0
98	0x00000000	0.0
99	0x00000000	0.0
100	0x00000000	0.0
101	0x00000000	0.0
102	0x00000000	0.0
103	0x00000000	0.0
104	0x00000000	0.0
105	0x00000000	0.0
106	0x00000000	0.0
107	0x00000000	0.0
108	0x00000000	0.0
109	0x00000000	0.0
110	0x00000000	0.0
111	0x00000000	0.0
112	0x00000000	0.0
113	0x00000000	0.0
114	0x00000000	0.0
115	0x00000000	0.0
116	0x00000000	0.0
117	0x00000000	0.0
118	0x00000000	0.0
119	0x00000000	0.0
120	0x00000000	0.0
121	0x00000000	0.0
122	0x00000000	0.0
123	0x00000000	0.0
124	0x00000000	0.0
125	0x00000000	0.0
126	0x00000000	0.0
127	0x00000000	0.0

bn1.running_mean f4 [128]
0	0x00000000	0.0
1	0x00000000	0.0
2	0x00000000	0.0
3	0x00000000	0.0
4	0x00000000	0.0
5	0x00000000	0.0
6	0x00000000	0.0
7	0x00000000	0.0
8	0x00000000	0.0
9	0x00000000	0.0
10	0x00000000	0.0
11	0x00000000	0.0
12	0x00000000	0.0
13	0x00000000	0.0
14	0x00000000	0.0
15	0x00000000	0.0
16	0x00000000	0.0
17	0x00000000	0.0
18	0x00000000	0.0
19	0x00000000	0.0
20	0x00000000	0.0
21	0x00000000	0.0
22	0x00000000	0.0
23	0x00000000	0.0
24	0x00000000	0.0
25	0x00000000	0.0
26	0x00000000	0.0
27	0x00000000	0.0
28	0x00000000	0.0
29	0x00000000	0.0
30	0x00000000	0.0
31	0x00000000	0.0
32	0x00000000	0.0
33	0x00000000	0.0
34	0x00000000	0.0
35	0x00000000	0.0
36	0x00000000	0.0
37	0x00000000	0.0
38	0x00000000	0.0
39	0x00000000	0.0
40	0x00000000	0.0
41	0x00000000	0.0
42	0x00000000	0.0
43	0x00000000	0.0
44	0x00000000	0.0
45	0x00000000	0.0
46	0x00000000	0.0
47	0x00000000	0.0
48	0x00000000	0.0
49	0x00000000	0.0
50	0x00000000	0.0
51	0x00000000	0.0
52	0x00000000	0.0
53	0x00000000	0.0
54	0x00000000	0.0
55	0x00000000	0.0
56	0x00000000	0.0
57	0x00000000	0.0
58	0x00000000	0.0
59	0x00000000	0.0
60	0x00000000	0.0
61	0x00000000	0.0
62	0x00000000	0.0
63	0x00000000	0.0
64	0x00000000	0.0
65	0x00000000	0.0
66	0x00000000	0.0
67	0x00000000	0.0
68	0x00000000	0.0
69	0x00000000	0.0
70	0x00000000	0.0
71	0x00000000	0.0
72	0x00000000	0.0
73	0x00000000	0.0
74	0x00000000	0.0
75	0x00000000	0.0
76	0x00000000	0.0
77	0x00000000	0.0
78	0x00000000	0.0
79	0x00000000	0.0
80	0x00000000	0.0
81	0x00000000	0.0
82	0x00000000	0.0
83	0x00000000	0.0
84	0x00000000	0.0
85	0x00000000	0.0
86	0x00000000	0.0
87	0x00000000	0.0
88	0x00000000	0.0
89	0x00000000	0.0
90	0x00000000	0.0
91	0x00000000	0.0
92	0x00000000	0.0
93	0x00000000	0.0
94	0x00000000	0.0
95	0x00000000	0.0
96	0x00000000	0.0
97	0x00000000	0.0
98	0x00000000	0.0
99	0x00000000	0.0
100	0x00000000	0.0
101	0x00000000	0.0
102	0x00000000	0.0
103	0x00000000	0.0
104	0x00000000	0.0
105	0x00000000	0.0
106	0x00000000	0.0
107	0x00000000	0.0
108	0x00000000	0.0
109	0x00000000	0.0
110	0x00000000	0.0
111	0x00000000	0.0
112	0x00000000	0.0
113	0x00000000	0.0
114	0x00000000	0.0
115	0x00000000	0.0
116	0x00000000	0.0
117	0x00000000	0.0
118	0x00000000	0.0
119	0x00000000	0.0
120	0x00000000	0.0
121	0x00000000	0.0
122	0x00000000	0.0
123	0x00000000	0.0
124	0x00000000	0.0
125	0x00000000	0.0
126	0x00000000	0.0
127	0x00000000	0.0

bn1.running_var f4 [128]
0	0x3f800000	1.0
1	0x3f800000	1.0
2	0x3f800000	1.0
3	0x3f800000	1.0
4	0x3f800000	1.0
5	0x3f800000	1.0
6	0x3f800000	1.0
7	0x3f800000	1.0
8	0x3f800000	1.0
9	0x3f800000	1.0
10	0x3f800000	1.0
11	0x3f800000	1.0
12	0x3f800000	1.0
13	0x3f800000	1.0
14	0x3f800000	1.0
15	0x3f800000	1.0
16	0x3f800000	1.0
17	0x3f800000	1.0
18	0x3f800000	1.0
19	0x3f800000	1.0
20	0x3f800000	1.0
21	0x3f800000	1.0
22	0x3f800000	1.0
23	0x3f800000	1.0
24	0x3f800000	1.0
25	0x3f800000	1.0
26	0x3f800000	1.0
27	0x3f800000	1.0
28	0x3f800000	1.0
29	0x3f800000	1.0
30	0x3f800000	1.0
31	0x3f800000	1.0
32	0x3f800000	1.0
33	0x3f800000	1.0
34	0x3f800000	1.0
35	0x3f800000	1.0
36	0x3f800000	1.0
37	0x3f800000	1.0
38	0x3f800000	1.0
39	0x3f800000	1.0
40	0x3f800000	1.0
41	0x3f800000	1.0
42	0x3f800000	1.0
43	0x3f800000	1.0
44	0x3f800000	1.0
45	0x3f800000	1.0
46	0x3f800000	1.0
47	0x3f800000	1.0
48	0x3f800000	1.0
49	0x3f800000	1.0
50	0x3f800000	1.0
51	0x3f800000	1.0
52	0x3f800000	1.0
53	0x3f800000	1.0
54	0x3f800000	1.0
55	0x3f800000	1.0
56	0x3f800000	1.0
57	0x3f800000	1.0
58	0x3f800000	1.0
59	0x3f800000	1.0
60	0x3f800000	1.0
61	0x3f800000	1.0
62	0x3f800000	1.0
63	0x3f800000	1.0
64	0x3f800000	1.0
65	0x3f800000	1.0
66	0x3f800000	1.0
67	0x3f800000	1.0
68	0x3f800000	1.0
69	0x3f800000	1.0
70	0x3f800000	1.0
71	0x3f800000	1.0
72	0x3f800000	1.0
73	0x3f800000	1.0
74	0x3f800000	1.0
75	0x3f800000	1.0
76	0x3f800000	1.0
77	0x3f800000	1.0
78	0x3f800000	1.0
79	0x3f800000	1.0
80	0x3f800000	1.0
81	0x3f800000	1.0
82	0x3f800000	1.0
83	0x3f800000	1.0
84	0x3f800000	1.0
85	0x3f800000	1.0
86	0x3f800000	1.0
87	0x3f800000	1.0
88	0x3f800000	1.0
89	0x3f800000	1.0
90	0x3f800000	1.0
91	0x3f800000	1.0
92	0x3f800000	1.0
93	0x3f800000	1.0
94	0x3f800000	1.0
95	0x3f800000	1.0
96	0x3f800000	1.0
97	0x3f800000	1.0
98	0x3f800000	1.0
99	0x3f800000	1.0
100	0x3f800000	1.0
101	0x3f800000	1.0
102	0x3f800000	1.0
103	0x3f800000	1.0
104	0x3f800000	1.0
105	0x3f800000	1.0
106	0x3f800000	1.0
107	0x3f800000	1.0
108	0x3f800000	1.0
109	0x3f800000	1.0
110	0x3f800000	1.0
111	0x3f800000	1.0
112	0x3f800000	1.0
113	0x3f800000	1.0
114	0x3f800000	1.0
115	0x3f800000	1.0
116	0x3f800000	1.0
117	0x3f800000	1.0
118	0x3f800000	1.0
119	0x3f800000	1.0
120	0x3f800000	1.0
121	0x3f800000	1.0
122	0x3f800000	1.0
123	0x3f800000	1.0
124	0x3f800000	1.0
125	0x3f800000	1.0
126	0x3f800000	1.0
127	0x3f800000	1.0

fc2.weight f4 [128, 2]
0	0xbd9a7bc1	-0.075431354
1	0x3ca2378c	0.019801877
2	0x3e0f3541	0.13985159
3	0x3cb0217d	0.021500343
4	0x3d4cf1d9	0.05003533
5	0x3e04607b	0.1292743
6	0xbbced275	-0.0063117095
7	0xbd508dff	-0.050916668
8	0xbca22c8b	-0.01979663
9	0x3d0e788d	0.034782935
10	0xbd378f18	-0.0448142
11	0xbcfd5ede	-0.030929025
12	0x3da343d7	0.07971924
13	0xbc726ac3	-0.014795962
14	0x3d4f48d0	0.05060655
15	0xbe096475	-0.13417228
16	0x3e0bc89a	0.13650742
17	0xbdb89121	-0.09012056
18	0xbe148f6b	-0.14507835
19	0xbd7838fe	-0.060601227
20	0x3df41cd2	0.119195595
21	0x3d8ac3cf	0.06775629
22	0xbe3796ad	-0.17928572
23	0xbd83c004	-0.064331084
24	0x3cc2772e	0.02373847
25	0x3c9c3284	0.019067056
26	0xbe11b301	-0.14228441
27	0x3bdbc28c	0.0067065414
28	0x3c9b6e94	0.018973626
29	0xbe07a251	-0.13245513
30	0x3d3291e7	0.043596175
31	0x3d95c6a1	0.07313276
32	0x3d844d86	0.06460099
33	0x3e35e2fc	0.17762369
34	0x3d0dc998	0.034616083
35	0x3db1725c	0.086643904
36	0x3d6e2f3c	0.058150515
37	0x3e3af827	0.18258725
38	0x3d91d122	0.07119967
39	0xbba6cccc	-0.0050903317
40	0x3df3fd65	0.119135655
41	0xbccafe77	-0.024779541
42	0x3dad942c	0.08475527
43	0xbbc3e27e	-0.0059779277
44	0xbd07bcd9	-0.033139084
45	0xbe1665bb	-0.14687245
46	0x3d49874b	0.04920129
47	0x3c1d9052	0.009616928
48	0x3d88b2ae	0.066747054
49	0xbd0043c7	-0.031314638
50	0xbcb7d2da	-0.022439409
51	0xbd34593b	-0.04403041
52	0x3c20d909	0.00981737
53	0xbd770b2c	-0.06031339
54	0xbd960e94	-0.07326999
55	0xbdfd2d7a	-0.123621896
56	0x3e06f059	0.13177623
57	0xbd1e0012	-0.038574286
58	0x3dcffd5a	0.10155745
59	0x3db7ed62	0.08980824
60	0xbdad5d01	-0.08465005
61	0x3d9f5467	0.0777977
62	0x3dcace3d	0.09902618
63	0x3d9942ce	0.07483445
64	0x3e039315	0.12849076
65	0xbe38d6a6	-0.18050632
66	0xbdb84bba	-0.08998819
67	0x3d531a2a	0.051538624
68	0xbcf5aa4f	-0.029988436
69	0xbdf02245	-0.117252864
70	0x3e2008fa	0.15628424
71	0x3e0cad3c	0.13737959
72	0x3cbd302b	0.023094257
73	0x3de448db	0.111467086
74	0xbdcc6cde	-0.09981702
75	0xbe0650ac	-0.13116711
76	0x3e4a3aa0	0.19748926
77	0xbdd6837f	-0.104743
78	0x3b3684fa	0.0027850256
79	0xbc3b8c7d	-0.011447069
80	0xbaa72dc8	-0.0012754733
81	0x3dd55030	0.10415685
82	0x3c506c5e	0.012721149
83	0x3de6a4a0	0.112618685
84	0x3e0d50b0	0.13800311
85	0xbdadc743	-0.08485272
86	0x3d46f996	0.048577867
87	0x3c9dda6a	0.019269187
88	0xbd999b00	-0.07500267
89	0x3d8f6338	0.07001346
90	0xbe6beb13	-0.23038892
91	0x3d46c73c	0.04852985
92	0x3e1fe252	0.15613678
93	0xbe1076a8	-0.14107764
94	0xbd818542	-0.06324245
95	0x3c9f695e	0.019459423
96	0x3ddf7c51	0.10912383
97	0xbe106794	-0.14102012
98	0x3d026cad	0.031841923
99	0xbcdd7ead	-0.027037943
100	0xbdc7151b	-0.097208224
101	0xbd7e3ae6	-0.06206789
102	0x3cd6e2d9	0.026231216
103	0xbc383a5b	-0.011244382
104	0xbc87b752	-0.016566906
105	0xbc373589	-0.011182197
106	0xbd938521	-0.07203127
107	0xbdad4ee8	-0.08462316
108	0xbd84bb0c	-0.06480989
109	0xbe062fc5	-0.1310416
110	0x3d6a8f71	0.057265703
111	0xbded1259	-0.11575765
112	0x3e5a4d7d	0.21318622
113	0x3d3bce23	0.045850884
114	0xbe1875d2	-0.14888695
115	0x3ccff643	0.025385981
116	0xbd4bba6f	-0.049738344
117	0xbdec5ecd	-0.11541519
118	0xbdaab97f	-0.08336162
119	0xbd579809	-0.052635226
120	0x3ddbf635	0.1074032
121	0xbd7c9c4f	-0.061672505
122	0x3dc47b72	0.09593858
123	0x3d19813a	0.037476756
124	0xbdaef334	-0.08542481
125	0x3c41fcc3	0.011840048
126	0x3dc465bc	0.09589717
127	0x3dd82892	0.10554613
128	0x3cd48be3	0.02594561
129	0x3b63458f	0.0034678911
130	0xbc495c41	-0.012290061
131	0xbdabf10e	-0.08395587
132	0xbdddc0f1	-0.10827816
133	0x3c010dda	0.007876838
134	0x3db2a94b	0.08723696
135	0xbe053bf1	-0.13011147
136	0xbc40ac02	-0.01175976
137	0x3e2808e6	0.16409644
138	0x3d9e7ec3	0.07739022
139	0x3c4f82c3	0.012665453
140	0xbd3aa27d	-0.045565117
141	0xbdc9e8b0	-0.09858835
142	0x3dd43b64	0.1036289
143	0xbc2edc87	-0.010672695
144	0x3dbbb36c	0.091650814
145	0x3d995a0d	0.07487879
146	0xbdfc2736	-0.123121664
147	0xbd5d569b	-0.05403767
148	0x3d8f1ec9	0.06988294
149	0x3e1e54ba	0.15462008
150	0x3c36bbb4	0.01115315
151	0xbe00bd6c	-0.12572259
152	0xbcf616ba	-0.030040134
153	0x3d35468c	0.044256732
154	0x3d3034bb	0.043019038
155	0x3b7fae3e	0.0039013769
156	0xbc57ea72	-0.013178455
157	0xbc9fb0f5	-0.01949356
158	0x3dfde1dc	0.12396595
159	0xbd43a215	-0.047761995
160	0x3d6a185c	0.057152137
161	0x3c93c4e4	0.01803822
162	0xbcadc2a9	-0.021210985
163	0x3e71e98f	0.23624252
164	0x3e165f6f	0.14684843
165	0xbd0bc6c0	-0.03412509
166	0xba9a3316	-0.0011764492
167	0x3dc00fe2	0.093780294
168	0xbdcc5a32	-0.09978141
169	0xbc170f4f	-0.009219958
170	0xbdc7bfcb	-0.097533785
171	0x3d9761c8	0.07391697
172	0xbd302803	-0.04300691
173	0xbe89b38c	-0.26894796
174	0xbcb17981	-0.021664383
175	0xbe131f13	-0.14367323
176	0x3c524e42	0.012836041
177	0xbc72a5be	-0.014810024
178	0xbd1c89c6	-0.03821733
179	0xbcdf542f	-0.027261822
180	0x3e01b6df	0.12667416
181	0xbc34c195	-0.011032482
182	0xbdaac82b	-0.0833896
183	0xbc3f19d7	-0.011663876
184	0xbcaebdda	-0.021330763
185	0xbe48d6dc	-0.19613212
186	0xbd8fbf24	-0.07018879
187	0x3d5c3537	0.053761687
188	0x3dbd131c	0.092321604
189	0x3e21c5d1	0.15798117
190	0xbe144b14	-0.14481765
191	0xbd183940	-0.037163973
192	0x3d647947	0.05577972
193	0xbc8e0af4	-0.017339207
194	0x3d0f832e	0.035037212
195	0xbce8e8f5	-0.028431395
196	0x3d42cf2c	0.047560856
197	0x3e0201fb	0.12696068
198	0x3d6c5de3	0.057706725
199	0xbc64277e	-0.013925431
200	0xbdc1c603	-0.09461596
201	0x3d232fad	0.03984039
202	0xbbe85267	-0.0070899012
203	0x3c62f847	0.013853139
204	0xbd902b8f	-0.07039558
205	0x3bf0ac96	0.0073447926
206	0xbc6c8747	-0.0144365495
207	0xbd635412	-0.055500098
208	0xbc659518	-0.0140125975
209	0xbc55b545	-0.013043706
210	0x3d6e8b95	0.058238585
211	0xbda63b02	-0.081167236
212	0xbc8ceabf	-0.01720178
213	0x3ba49b43	0.0050233915
214	0x3d6d70a6	0.057968758
215	0x3dafa39b	0.08576127
216	0x3d4e2672	0.050329633
217	0x3cb4e615	0.022082368
218	0x3de89584	0.11356643
219	0xbce5796b	-0.028011998
220	0xbd9592d6	-0.07303397
221	0xbd74c679	-0.05975959
222	0x3b5c33ae	0.003360014
223	0xbdb2a59e	-0.08722995
224	0xbd764d5d	-0.060132373
225	0x3e1d8c10	0.15385461
226	0x3e434dcd	0.19072647
227	0xbd3ef708	-0.046622306
228	0x3d9bf54a	0.076151446
229	0xbd65b589	-0.05608133
230	0xbdd17545	-0.102274455
231	0xbe0ed4be	-0.13948342
232	0x3cef93b9	0.029245244
233	0xbe214bb4	-0.15751535
234	0xbdfd8ad4	-0.12379995
235	0xbc980702	-0.01855803
236	0xbe13cf27	-0.14434491
237	0x3dc30654	0.09522691
238	0x3bd1f74e	0.006407655
239	0xbd86d2f9	-0.065832086
240	0xbd9138db	-0.070909224
241	0x3d803f62	0.06262089
242	0x3e3e6510	0.1859324
243	0x3c67f9ad	0.014158648
244	0x3d8421ce	0.0645176
245	0x3cef293b	0.029194465
246	0x3cfb1185	0.030648002
247	0x3d5dff0b	0.054198306
248	0xbd9677c0	-0.07347059
249	0x3ccdfce0	0.025144994
250	0xbdc12eeb	-0.09432777
251	0xbba9fecc	-0.005187845
252	0x3d1cf0ef	0.03831571
253	0x3cd695e5	0.026194522
254	0xbdbfb08e	-0.09359847
255	0x3e0dddf9	0.13854207

actor.linears.0.weight f4 [128, 384]
0	0x3a0144bf	0.00049312034
1	0x3d1e7b55	0.038691837
2	0xbc0b6009	-0.008506783
3	0xbd3644c0	-0.04449916
4	0xbcb7e811	-0.022449525
5	0x3c013ec4	0.0078885
6	0xbd927f06	-0.07153134
7	0xbdb49893	-0.08818164
8	0x3ba4d2ba	0.0050300034
9	0x3b7ac4f8	0.0038264375
10	0x3d907377	0.07053273
11	0xbc8938df	-0.016750751
12	0x3d026ac5	0.031840105
13	0x3bcc0d63	0.0062271818
14	0xbd9e95c0	-0.07743406
15	0x3da4acd6	0.08040778
16	0x3db4b13a	0.08822866
17	0x3dfab1f8	0.12240976
18	0x3c954550	0.018221527
19	0xbaeb0f9d	-0.001793373
20	0x3d38bd82	0.045102604
21	0x3d102a8b	0.035196822
22	0xbd94782c	-0.072494835
23	0x3e094b0b	0.13407533
24	0xbcc2066b	-0.023684701
25	0xbd20c54e	-0.039250664
26	0x3cde9137	0.027168853
27	0x3d1ddb24	0.038539067
28	0xbd8b6925	-0.06807164
29	0xbbbdf7a6	-0.0057973443
30	0xbd048f07	-0.032362964
31	0xbccea79f	-0.025226412
32	0xbc2baf87	-0.010478861
33	0x3d43fcc9	0.047848497
34	0x3c2365e5	0.009973024
35	0xb7ec565a	-2.8173603e-05
36	0x3d6f0487	0.058353927
37	0xbcfc2ef6	-0.030784111
38	0x3ce477d4	0.02788917
39	0xbd1dd26d	-0.038530756
40	0xbdc454d8	-0.09586495
41	0xbd02996f	-0.031884607
42	0x3d4735dc	0.04863535
43	0xbdaa6903	-0.08320811
44	0xbb6b8787	-0.0035938935
45	0x3d3b08fe	0.045662872
46	0xbbd3be4a	-0.006461893
47	0x3b11a5f0	0.002222415
48	0xbd03fe1d	-0.032224763
49	0x3dbe3ace	0.0928856
50	0xbd8ec2be	-0.06970738
51	0x3ba26cda	0.004956824
52	0xbd79647b	-0.06088684
53	0x3d06c9bd	0.032907236
54	0xbc52172f	-0.01282291
55	0x3ca8b986	0.020596277
56	0x3c59c6b9	0.013292008
57	0xbc82c53c	-0.01596319
58	0xbd1a5f8d	-0.03768878
59	0x3dd882dd	0.10571835
60	0x3e0ede62	0.1395202
61	0x3d8e7405	0.06955723
62	0xbd1840af	-0.037171062
63	0x3d46d71c	0.048544988
64	0x3d3c46d2	0.045965977
65	0x3c3dffd8	0.011596642
66	0xbd35d0fa	-0.04438875
67	0x3d3795ba	0.044820525
68	0x3df157e4	0.11784342
69	0x3d5b6f73	0.053573083
70	0xbd07198a	-0.03298334
71	0xbc991a57	-0.018689318
72	0xbc2c89b4	-0.010530878
73	0xbce28f3e	-0.027656194
74	0xbcfed170	-0.031105727
75	0xbd08316d	-0.03325026
76	0x3d825efd	0.06365774
77	0x3d2e53e4	0.042560473
78	0x3ccf3545	0.025293956
79	0xbd8434d0	-0.06455386
80	0x3d054c86	0.03254368
81	0xbb97717c	-0.0046216827
82	0xbd9f49f9	-0.07777781
83	0x3d2dae23	0.042402398
84	0xbdef8fae	-0.116973266
85	0xbdcb68c4	-0.09932092
86	0x3d7f4358	0.062320083
87	0x3c64d17e	0.013965962
88	0xbc9dba91	-0.019254
89	0x3d62c879	0.055366967
90	0xbb9e67dd	-0.004834159
91	0x3cefff34	0.029296495
92	0xbd7f29d0	-0.062295735
93	0xba4d67ae	-0.0007835579
94	0xbd91c536	-0.07117693
95	0xbd86a99f	-0.065753214
96	0x3d7c349b	0.061573606
97	0xbc67bd93	-0.014144319
98	0xbcec9c8a	-0.028883237
99	0x3b047ff3	0.0020217865
100	0x3bdd4337	0.0067523974
101	0xbd3c3536	-0.045949183
102	0xbcea2a60	-0.02858466
103	0x3d37e818	0.044899076
104	0xbd81603c	-0.063171834
105	0xbd760ab0	-0.060068786
106	0xbc17ab0b	-0.009257088
107	0x3d1bf8e1	0.038079146
108	0xbd1479c7	-0.03624895
109	0x3db952ac	0.090489715
110	0xbdaf5840	-0.08561754
111	0x3b6a16fc	0.0035719266
112	0x3c296361	0.010338635
113	0xbcd019e0	-0.025402963
114	0x3b3ce002	0.0028820042
115	0x3d672776	0.056434117
116	0x3d19bdd6	0.037534557
117	0x3c41bea0	0.011825234
118	0x3cf3dcc7	0.02976836
119	0xbd228c32	-0.039684482
120	0x3bc2b963	0.00594251
121	0xbcf408df	-0.029789386
122	0x3da3b8a9	0.079942055
123	0x3d907ced	0.07055078
124	0xbc0fa50d	-0.0087673785
125	0xbb14294d	-0.0022607625
126	0xbb95b5d3	-0.0045687943
127	0x3c01fc28	0.007933654
128	0x3da03caf	0.078240745
129	0x3cfef6d5	0.031123558
130	0x3cb030b1	0.021507593
131	0x3dca03da	0.09864016
132	0x3d448f60	0.047988296
133	0x3d11dd0e	0.035611205
134	0xbcd230ac	-0.025657974
135	0xbce55685	-0.027995357
136	0xbcf6365d	-0.03005522
137	0xbce9a021	-0.028518738
138	0x3c148de5	0.009067033
139	0xbd4cc51b	-0.049992662
140	0xbc02980e	-0.007970823
141	0x3cc86b83	0.024465328
142	0xbca7becf	-0.020476727
143	0xbc9419f0	-0.018078774
144	0x3dea206d	0.11431966
145	0xbacc610a	-0.0015592885
146	0x3cb7707d	0.022392506
147	0x3d375b51	0.04476482
148	0xbd7ae8b7	-0.06125709
149	0xbdb0aa71	-0.08626259
150	0x3ca67749	0.020320551
151	0x3d9c2fc8	0.07626301
152	0xbb461e1f	-0.0030230356
153	0xbdb376b8	-0.08762878
154	0x3c2decd4	0.010615546
155	0xbc5daee4	-0.013530467
156	0xbd1cac03	-0.03824998
157	0xbd883df2	-0.0665244
158	0xbc4af469	-0.0123873735
159	0xbc03859d	-0.008027461
160	0xbd6b0434	-0.057377055
161	0x3cdb3a95	0.026761333
162	0x3d0b9acc	0.034083173
163	0xbc3f9985	-0.011694317
164	0x3d468da2	0.048474915
165	0x3ced80f5	0.028992156
166	0xbd26ebd1	-0.040752236
167	0xbd93aee2	-0.072110906
168	0x3c6532e1	0.013989181
169	0xbca03199	-0.0195549
170	0xbcbf0bbb	-0.023321023
171	0x3c396b78	0.011317126
172	0xbcfec55d	-0.03109997
173	0xbd987aca	-0.07445295
174	0x3d73d3a8	0.059528023
175	0x3c4418a6	0.011968767
176	0xbc6a44cd	-0.01429863
177	0x3cd7bdeb	0.026335677
178	0x3dfb7c3e	0.12279557
179	0xbcafabb2	-0.021444175
180	0xbce4ccd6	-0.027929705
181	0x3d244d9d	0.04011308
182	0x3d37fb8b	0.044917624
183	0x3b865d35	0.0041004666
184	0x3d831c21	0.064018495
185	0xbe17ea46	-0.14835462
186	0xbd70e223	-0.05880941
187	0x3c81e48e	0.015856054
188	0x3d9b3656	0.07578723
189	0xbcf713a1	-0.030160727
190	0x3d0748e9	0.033028517
191	0x3c5a62e6	0.013329243
192	0xbc4dbca4	-0.012557182
193	0xbb843111	-0.0040341695
194	0x3cc78664	0.024356075
195	0x3dda222c	0.10651049
196	0xbd87744d	-0.066139795
197	0xbcde226d	-0.027116025
198	0xba7eaf52	-0.0009715456
199	0x3d887ccc	0.06664428
200	0x3c819b57	0.015821142
201	0x3c5a37f9	0.013319009
202	0x3d0c0659	0.03418574
203	0x3c9f13d9	0.019418644
204	0x3d1d6099	0.0384222
205	0x3c8993a9	0.016794043
206	0xbd9eeadb	-0.07759639
207	0xbbe7769d	-0.0070637004
208	0xbc0239dc	-0.007948365
209	0xbd90cf24	-0.07070759
210	0xbda2e2ae	-0.07953392
211	0x3c7eef64	0.015560005
212	0x3d46bad7	0.048518028
213	0xbd936d92	-0.07198633
214	0xbd42c083	-0.047546875
215	0x3ce2f157	0.02770297
216	0x3d5ceab2	0.05393476
217	0x3aa6f249	0.0012737002
218	0xbbfee49e	-0.007778718
219	0x3cfced29	0.030874806
220	0xbdc10c3c	-0.09426162
221	0x3b98be45	0.004661354
222	0x3c9d6777	0.019214375
223	0xbcf25157	-0.029579801
224	0xbd83f207	-0.064426474
225	0x3d645633	0.05574627
226	0x3d70e549	0.058812413
227	0xbce3f612	-0.027827296
228	0xbb90123a	-0.004396704
229	0xbd226eb9	-0.039656375
230	0xbd4936bc	-0.049124464
231	0xbd0fd3d4	-0.035114124
232	0x3e090221	0.13379718
233	0xbd3cbbaa	-0.046077408
234	0x3be2cdc2	0.006921501
235	0xbd2c1a13	-0.042017054
236	0xbd297382	-0.041369922
237	0x3d233433	0.039844703
238	0x3d8236c9	0.06358106
239	0x3c84d6ab	0.016215643
240	0x3c327ebf	0.010894476
241	0xbda612ad	-0.08109031
242	0x3bb94160	0.0056535453
243	0xbd695e99	-0.05697498
244	0xbccf1895	-0.025280276
245	0x3e1479d2	0.14499596
246	0xbbccc150	-0.0062486306
247	0xbc687f83	-0.014190557
248	0x3da255dd	0.07926533
249	0xbdc00031	-0.093750365
250	0x3da257b1	0.07926882
251	0xbd726fd3	-0.059188675
252	0x3ccd5223	0.02506358
253	0xbdbcfed5	-0.09228293
254	0xbca1250f	-0.019670991
255	0x3d28aedd	0.041182388

actor.linears.0.bias f4 [128]
0	0xbafc52bb	-0.001925073
1	0xbc020097	-0.007934711
2	0xbbe56746	-0.0070008365
3	0xbc5a9683	-0.013341549
4	0x3ad9a6b3	0.0016605466
5	0xbbd2a69b	-0.0064285523
6	0x3c358b34	0.011080552
7	0xbb3a09b0	-0.0028387122
8	0xbb943f15	-0.0045241215
9	0xbb81f300	-0.0039657354
10	0xbb2be91c	-0.0026231473
11	0xbaa03521	-0.0012222865
12	0xbc457300	-0.012051344
13	0xbba117d2	-0.0049161697
14	0x3b2a7984	0.002601237
15	0x3be8dd60	0.007106468
16	0x3b29edde	0.0025929133
17	0xbbde5292	-0.0067847455
18	0x3ba87482	0.005140842
19	0xbb89f111	-0.0042096456
20	0xbb0c158d	-0.002137515
21	0xbac80c9c	-0.0015262547
22	0xbb33b27b	-0.0027419615
23	0x3b19cfa9	0.0023469722
24	0xbc0c6a96	-0.008570334
25	0xba3fa640	-0.0007310845
26	0x3c1d8257	0.009613595
27	0xbb995843	-0.004679711
28	0x3aa64e0b	0.0012688054
29	0x3bbfc713	0.005852589
30	0xbc0d7e88	-0.008636124
31	0x3bb4338b	0.0054993085
32	0xbbf0c8d8	-0.007348161
33	0x3bdb7133	0.006696844
34	0x3b404286	0.0029336526
35	0x3b8aee7c	0.0042398553
36	0xbc3324a0	-0.010934025
37	0x3bce97b9	0.006304708
38	0xbadfbd94	-0.0017070048
39	0x3c2d1b31	0.010565565
40	0x3c0da554	0.008645374
41	0x3c13c2cd	0.009018612
42	0xbbd899c7	-0.0066101286
43	0x3bff5fd6	0.007793407
44	0x3bb9f73d	0.005675225
45	0xbb33f32d	-0.0027458176
46	0xbbd6e4ef	-0.0065580527
47	0xbb88c30e	-0.004173643
48	0x3acb0494	0.0015489035
49	0xbab5281a	-0.0013821155
50	0x3b8ecff6	0.004358287
51	0xbbaeedf3	-0.0053384244
52	0xbb0b5085	-0.002125771
53	0x3ac07d43	0.0014685768
54	0xbc0966e6	-0.008386349
55	0xbbb2c552	-0.0054556513
56	0x3ba01292	0.0048850263
57	0xbbf48f8f	-0.0074634026
58	0xbbb594f1	-0.005541437
59	0x3bacc38d	0.005272335
60	0xbaf5aa69	-0.0018742803
61	0x3b1f079b	0.0024266008
62	0xbc2d94b0	-0.010594532
63	0x3ade688e	0.0016968416
64	0xbc281bcc	-0.010260534
65	0x39c839c7	0.0003819002
66	0x3bafd6b8	0.0053661726
67	0xbb5ffc1e	-0.0034177373
68	0xbbf17bb8	-0.0073694848
69	0xbaf056b1	-0.0018336383
70	0x3b3c5193	0.0028735145
71	0xbbb8cd7c	-0.00563973
72	0x3bdf702a	0.006818791
73	0x3b9e2c1f	0.004827037
74	0xbbaec6cf	-0.0053337584
75	0xbbe5fe1e	-0.0070188185
76	0x3af861f7	0.0018950094
77	0xbc06f3c1	-0.008236826
78	0xbc0c56ab	-0.008565585
79	0x3b40415b	0.002933583
80	0xba377778	-0.0006998698
81	0xbbaeb5de	-0.005331739
82	0x3bdb68fb	0.0066958643
83	0xbb36a557	-0.0027869546
84	0x3b84d7cd	0.004054046
85	0xbb48af3e	-0.003062203
86	0x3bb2806d	0.0054474385
87	0xbb9742b6	-0.004616107
88	0x3be1dfed	0.006893149
89	0x3b91c42f	0.0044484357
90	0xbbd26cdd	-0.006421669
91	0xb971b040	-0.00023049209
92	0x3bf37192	0.00742931
93	0x3b931d25	0.0044895583
94	0xba876fb4	-0.0010332973
95	0xbb9cf337	-0.0047897357
96	0x3a986519	0.0011626809
97	0x3b8fb7bf	0.004385918
98	0x3c0b914b	0.008518527
99	0xb9851f24	-0.00025390938
100	0xbbd73b33	-0.0065683364
101	0x3ab6aac3	0.0013936389
102	0x3a868d81	0.001026556
103	0xbbe8e484	-0.0071073193
104	0xb9e9d851	-0.0004460239
105	0x3bce670f	0.0062989066
106	0x3bb577e5	0.005537974
107	0xbbc3e0e6	-0.0059777377
108	0xbb9293cb	-0.0044731847
109	0xbbac7f9d	-0.005264236
110	0x3bbf71b6	0.005842413
111	0xb92dc5cb	-0.0001657225
112	0x3a7f0d83	0.00097294914
113	0xbba3e862	-0.0050020674
114	0xbbc8a913	-0.006123671
115	0xbc2c2514	-0.010506887
116	0x3c04df48	0.008109875
117	0x3be222cd	0.006901121
118	0xba4c29e3	-0.0007788224
119	0x3c3ba72a	0.011453429
120	0xbc3226c9	-0.010873505
121	0x3c62e828	0.013849296
122	0x3ad1937f	0.0015989392
123	0x3ab0d57f	0.0013491361
124	0xbbf0215a	-0.0073281946
125	0xbbe753b4	-0.0070595387
126	0x3970cb9f	0.00022964038
127	0x3b2bab0f	0.0026194488

actor.linears.1.weight f4 [128, 128]
0	0x3d53f5e0	0.051748157
1	0xbe09adbf	-0.13445185
2	0xbe352093	-0.17688207
3	0x3e1684f6	0.14699158
4	0xbc7e779e	-0.015531449
5	0x3df2dabf	0.11858129
6	0xbcce7c3c	-0.025205724
7	0xbcb48ccb	-0.022039792
8	0xbe043290	-0.12909913
9	0x3e549b69	0.2076241
10	0xbe102e8a	-0.14080253
11	0xbe1b84fc	-0.15187448
12	0xbd7b4ea7	-0.061354306
13	0x3ccd11d1	0.02503291
14	0x3dd8156b	0.1055096
15	0xbe18f046	-0.14935407
16	0xbdeca8ae	-0.115556106
17	0x3be97876	0.0071249558
18	0x3da08226	0.07837324
19	0x3d3575b7	0.044301715
20	0xbc9874dd	-0.018610412
21	0x3e234aa2	0.15946439
22	0x3c503847	0.01270873
23	0x3bfaf4e0	0.007658586
24	0x3d8b32ef	0.06796824
25	0xbc8fab5d	-0.017537767
26	0x3c9461ac	0.01811298
27	0x3de82bb2	0.11336459
28	0xbe5a09a7	-0.21292745
29	0x3d7acd6b	0.061231058
30	0xbd140981	-0.036141876
31	0x3deb3d3a	0.114862874
32	0xbc899912	-0.016796622
33	0xbd0c8d70	-0.034314573
34	0x3d4f9106	0.050675415
35	0x3d28d702	0.041220672
36	0xbe27907a	-0.16363707
37	0x3dd57f9f	0.104247324
38	0xbd828361	-0.06372715
39	0xbbb4c46d	-0.00551658
40	0x3d0f699e	0.035012834
41	0x3d685222	0.056718953
42	0xbcca15ec	-0.024668656
43	0xbde9167d	-0.113812424
44	0x3e0cd781	0.13754083
45	0x3d47a602	0.0487423
46	0xbd375cc6	-0.04476621
47	0x3cf01d97	0.029310985
48	0x3dc735ce	0.09727059
49	0xbda6e066	-0.08148269
50	0x3d6ab273	0.05729909
51	0xbd2fee5c	-0.042951927
52	0x3e8a04ed	0.26956883
53	0x3e084cb4	0.1331051
54	0x3ca87f64	0.020568557
55	0xbdd04761	-0.101698644
56	0x3d0d8593	0.034551214
57	0xbd5a689e	-0.053322427
58	0xbe12312b	-0.14276569
59	0x3de23778	0.11045736
60	0x3b93729c	0.0044997465
61	0xbdae22b7	-0.08502715
62	0x3b0db9a2	0.0021625538
63	0x3dca305d	0.09872506
64	0xbdb3277c	-0.087477654
65	0x3dbed92c	0.09318766
66	0xbde840f5	-0.113405146
67	0xbd2b8782	-0.041877277
68	0x3d2c635d	0.042086948
69	0xbd319f84	-0.043365017
70	0xbccc8e5b	-0.024970224
71	0xbd81bea0	-0.06335187
72	0x3de7f4c1	0.1132598
73	0xbc635576	-0.013875356
74	0xbe14e872	-0.14541796
75	0xbdcebfe0	-0.10095191
76	0xbe2c00c3	-0.16797166
77	0x3d4da286	0.050203823
78	0xbcdbe039	-0.026840316
79	0x3d3c16d6	0.045920216
80	0x3dd83929	0.105577774
81	0x3c04722d	0.008083862
82	0xbc9cae9e	-0.019126233
83	0xbd812b32	-0.06307067
84	0xbdd6b131	-0.10483015
85	0x3d821087	0.063508086
86	0x3e196942	0.14981559
87	0x3d627550	0.05528766
88	0x3d489ee4	0.048979655
89	0x3d8dd5aa	0.06925519
90	0x3c598545	0.013276403
91	0x3db65676	0.0890321
92	0xbde8bbea	-0.11363967
93	0x3926fa62	0.00015924269
94	0xbd4f68e1	-0.05063713
95	0xbd5c9621	-0.05385411
96	0x3ca8a323	0.020585602
97	0x3b8ccdbf	0.004296988
98	0xbdd2d6d8	-0.102948844
99	0xbcea47c0	-0.028598666
100	0x3d4d3dd2	0.050107785
101	0x3d549e99	0.051909063
102	0x3dfeb195	0.12436215
103	0xbd9bf853	-0.076157235
104	0x3ce124c6	0.027483355
105	0xbd9068d8	-0.07051247
106	0xbc02c2fb	-0.007981057
107	0x3e2188a4	0.1577478
108	0xbd15bc28	-0.036556393
109	0xbd68cfa4	-0.056838647
110	0x3dc2c15e	0.09509538
111	0xbd10fc1c	-0.03539668
112	0xbd5e0c53	-0.054210972
113	0x3e23510a	0.15948883
114	0x3df061ae	0.11737381
115	0x3d2623b8	0.040561408
116	0xbe022fd0	-0.12713552
117	0x3d16bb42	0.036799677
118	0x3dc8cb63	0.09804418
119	0x399fd8cd	0.00030488372
120	0x3d82ac0a	0.0638047
121	0xbd4fa5ea	-0.050695337
122	0x3d9c7f1e	0.07641433
123	0x3d907e89	0.07055385
124	0xbd5a3c86	-0.053280376
125	0x3d1bee3e	0.038069002
126	0xbafaf691	-0.0019146969
127	0xbde941ab	-0.11389478
128	0xbd466e87	-0.04844525
129	0xbcd674ab	-0.026178678
130	0xbcc05bec	-0.023481332
131	0x3df1eb8a	0.11812504
132	0x3c6f5efa	0.0146100465
133	0x3d719cce	0.05898743
134	0x3d95f863	0.07322767
135	0x3dce6cea	0.100793675
136	0xbd7c6618	-0.0616208
137	0xbe5d7337	-0.21625982
138	0xbde91e72	-0.1138276
139	0xbd2973bc	-0.04137014
140	0xbe071c8f	-0.13194488
141	0x3d4a5de5	0.04940595
142	0x3d3d5db2	0.046231933
143	0x3df59eab	0.11993154
144	0xbd8561e4	-0.06512812
145	0xbcf4ef84	-0.029899366
146	0x3d321892	0.043480463
147	0x3d7e6a4c	0.06211309
148	0x3e129c3c	0.14317411
149	0x3dd90f72	0.10598649
150	0xbdeb9c90	-0.11504471
151	0x3cef0d43	0.029181128
152	0x3e421cdb	0.1895632
153	0x3bfbe3c8	0.0076870658
154	0x3cc4575e	0.023967441
155	0xbdddce3d	-0.108303525
156	0x3c734623	0.014848265
157	0xbe0fbcd4	-0.14036876
158	0x3e03b922	0.12863591
159	0xbc317cfc	-0.010833021
160	0xbe08a77c	-0.1334514
161	0x3dcece9b	0.100980006
162	0x3da38e1b	0.07986089
163	0xbe23d7c7	-0.16000281
164	0x3cbca039	0.023025619
165	0x3dfd13fc	0.12357327
166	0x3d6491ca	0.055803098
167	0x3e4ef295	0.20209725
168	0x3da43dec	0.08019623
169	0xbd79f9f6	-0.061029397
170	0xbd15a797	-0.03653678
171	0x3df83ed3	0.12121358
172	0xbdb8896e	-0.09010588
173	0x3cbd9b76	0.023145419
174	0xbd3db1cd	-0.046312142
175	0x3d9e31f2	0.0772437
176	0x3d4f1c7c	0.050564274
177	0x3e2b2724	0.1671415
178	0x3de8f183	0.1137419
179	0xbd9528ce	-0.072831735
180	0xbdaee848	-0.08540398
181	0xbdccc871	-0.09999169
182	0x3d46598e	0.04842525
183	0x3d4d715a	0.05015693
184	0x3deda803	0.11604311
185	0x3ba1e5e6	0.004940736
186	0x3dda32fb	0.10654255
187	0x3d90df67	0.070738606
188	0x3da3d9cb	0.08000525
189	0xbcbdafa6	-0.023155045
190	0xbd80d3bc	-0.06290385
191	0xbd2e3222	-0.04252828
192	0x3c940068	0.0180666
193	0xbdebcc0a	-0.11513527
194	0x3d56f400	0.05247879
195	0xbd8bf5b4	-0.068339735
196	0x3d786b21	0.06064904
197	0xbd3e1d9a	-0.04641495
198	0x3d55a819	0.052162264
199	0x3cde5772	0.027141307
200	0x3c90184a	0.017589707
201	0x3d823a8e	0.06358825
202	0xbdc0ee80	-0.0942049
203	0x3e3af446	0.18257245
204	0x3c7b1a6c	0.015326124
205	0x3d333e6b	0.0437607
206	0xbc358844	-0.011079852
207	0xbde1a635	-0.110180296
208	0x393c4498	0.0001795463
209	0x3bde9331	0.006792449
210	0xbd19a980	-0.037515163
211	0xbdd0d1c1	-0.101962574
212	0xbcb68db8	-0.022284374
213	0xbd17f354	-0.03709729
214	0x3d0399a1	0.032128934
215	0xbcf96b50	-0.030446678
216	0xbde2041c	-0.1103594
217	0x3d6ee399	0.058322523
218	0xbdde8dbb	-0.10866877
219	0xbd1b74d3	-0.03795321
220	0xbe084ef7	-0.13311373
221	0xbd45b8aa	-0.048271812
222	0xbdafa127	-0.08575659
223	0x3cb2d52f	0.02183017
224	0x3da7dc73	0.08196344
225	0x3b4afd56	0.0030973754
226	0x3d1334f9	0.03593919
227	0xbe258f0d	-0.16167851
228	0xbcbd05dc	-0.023074083
229	0xbe10bedd	-0.14135309
230	0xbd5d7042	-0.054062136
231	0xbe0d3b31	-0.13792111
232	0x3d5468e7	0.051857855
233	0x3ce975c6	0.028498542
234	0x3dd1c8cb	0.10243376
235	0xbd29e92d	-0.04148214
236	0x3ddaf71a	0.10691662
237	0x3dc13aca	0.09435041
238	0xbcc278f5	-0.023739317
239	0xbdda6b83	-0.106650375
240	0x3c77d13b	0.015125568
241	0x3d17898a	0.0369964
242	0x3e53fae0	0.2070117
243	0xbd535f6d	-0.051604677
244	0xbd9b9cb1	-0.07598246
245	0xbe2d767c	-0.1693973
246	0x3dab1244	0.08353093
247	0xbdab1347	-0.08353286
248	0x3bd23dca	0.0064160572
249	0xbd1b0dd9	-0.037855003
250	0x3de4724a	0.111546114
251	0x3da37688	0.079815924
252	0x3d6916f9	0.056906674
253	0xbcfb1e81	-0.030654194
254	0xbe1a5ca9	-0.1507441
255	0xbd44ecf3	-0.048077535
