FJSP/network/10x10/best_value/op_select_policy.pth (torch, 646440 bytes, 53 tensors)

_input f4 [128]
-0.22713491 0.6113913 -0.86439574 0.9771702 -0.29486135 0.8824858 0.50530124 -0.021673586
-0.70523477 1.0015018 -0.040664073 -0.12852693 -0.1344181 0.9722781 -0.49391901 -0.26613387
-0.08121753 -0.22673734 0.66801995 0.8713593 0.76560634 -0.7777031 -0.82675046 0.95111156
-0.16032279 -0.91097444 0.7132215 -0.012292013 0.8071236 -0.6297688 0.02806669 -0.43088514
-0.7974113 0.6559008 0.17767377 0.54407144 0.47767493 -0.018100046 -0.066017926 0.11024938
-0.106936835 0.21910599 0.5864323 -0.6870878 0.6107568 -0.4113016 -0.41846684 0.5197206
0.56681615 -0.8921017 0.14612088 0.6654387 0.9057416 -0.654416 0.7093173 0.9366553
0.9954002 0.56697005 -0.57006294 -0.3590521 -0.47314283 0.68676144 0.13085054 0.94531673
0.67960215 -0.31655025 0.149409 -0.58010095 0.61062074 -0.868039 -0.6755456 -0.9857174
0.97401386 0.8466878 -0.8218037 0.33140358 0.6646821 0.21488339 -0.645531 -0.35013708
-0.21206152 0.0080188615 0.13397604 0.7386586 -0.3108737 -0.51229876 -0.12009728 -0.69934464
-0.030570028 -0.03933409 -0.526011 -0.33323666 0.55228865 -0.7003883 -0.64254457 0.5054632
-0.34002244 0.19638883 0.63464546 0.37639213 0.3854324 -0.9076606 0.36340332 -0.8444826
0.49986687 0.10047387 0.053528126 -0.32881537 -0.60595316 -0.49161303 0.40427715 0.22939427
0.1300922 -0.86851305 0.34269303 -0.5793153 0.610636 0.4402646 0.9736983 0.3323142
-0.48513225 -0.35716414 -0.22740078 -0.8026363 0.18832962 -0.8015356 -0.49117622 0.10572071
00000000: 0e96 68be 2484 1c3f 0a49 5dbf d427 7a3f
00000010: 11f8 96be 97ea 613f 6c5b 013f ce8c b1bc
00000020: 448a 34bf 3631 803f 5f8f 26bd 909c 03be
00000030: e6a4 09be 38e7 783f f4e2 fcbe b342 88be
00000040: 6055 a6bd d52d 68be 5b03 2b3f 6711 5f3f
00000050: c7fe 433f 8d17 47bf eba5 53bf 0c7c 733f
00000060: a82b 24be 9f35 69bf af95 363f 7064 49bc
00000070: a79f 4e3f 8738 21bf 1dec e53c fa9c dcbe
00000080: 2623 4cbf 1de9 273f 1df0 353e 4448 0b3f
00000090: cf91 f43e 8c46 94bc 6834 87bd 6dca e13d
000000a0: b301 dbbd 525d 603e 6d20 163f fce4 2fbf
000000b0: 8f5a 1c3f 2096 d2be 4941 d6be 690c 053f
000000c0: dd1a 113f c760 64bf b6a0 153e 315a 2a3f
000000d0: aede 673f cf87 27bf d295 353f a4c8 6f3f
000000e0: 8cd2 7e3f f324 113f a5ef 11bf add5 b7be
000000f0: c73f f2be 99cf 2f3f affd 053e 4700 723f
00000100: 68fa 2d3f e012 a2be acfe 183e 7f81 14bf
00000110: a451 1c3f ce37 5ebf 8ef0 2cbf fa57 7cbf
00000120: f958 793f 88c0 583f ba61 52bf bbad a93e
00000130: 9b28 2a3f 640a 5c3e 8541 25bf 2b45 b3be
00000140: a826 59be 8b61 033c 0431 093e bb18 3d3f
00000150: d62a 9fbe 0326 03bf 90f5 f5bd 4008 33bf
00000160: ff6d fabc c81c 21bd a8a8 06bf ff9d aabe
00000170: ca62 0d3f a64c 33bf cd7d 24bf 0966 013f
00000180: 6c17 aebe 271a 493e 2078 223f 78b6 c03e
00000190: 6557 c53e 725c 68bf 0010 ba3e 0330 58bf
000001a0: 8dee ff3e 3fc5 cd3d 4f40 5b3d 7d5a a8be
000001b0: bf1f 1bbf b4b4 fbbe 6afd ce3e 55e6 6a3e
000001c0: e436 053e df56 5ebf 7675 af3e 024e 14bf
000001d0: a452 1c3f 5d6a e13e 4b44 793f 1625 aa3e
000001e0: 4163 f8be 38de b6be c0db 68be 9379 4dbf
000001f0: 7bd9 403e 7031 4dbf 737b fbbe 1984 d83d

bn.weight f4 [2]
1.0 1.0
00000000: 0000 803f 0000 803f

bn.bias f4 [2]
0.0 0.0
00000000: 0000 0000 0000 0000

bn.running_mean f4 [2]
0.0 0.0
00000000: 0000 0000 0000 0000

bn.running_var f4 [2]
1.0 1.0
00000000: 0000 803f 0000 803f

encoder.feature_extract.mlps.0.linears.0.weight f4 [128, 2]
0.1325047 0.025107574 -0.04069312 -0.13339213 0.1799655 -0.096312456 -0.19923232 -0.06537294
0.0013144778 -0.06547732 -0.09297274 0.0114980405 0.16836202 -0.036996495 -0.059357326 0.016314907
-0.022152515 0.106278606 -0.011910854 -0.054781873 0.01869717 0.1706663 -0.016288627 0.13181943
-0.013932781 -0.21939863 -0.07002497 -0.037274722 -0.118486635 0.003363539 -0.04283657 0.15700592
-0.026297865 -0.09708941 0.019373996 0.071200214 0.038383864 0.004213495 0.07009306 -0.002775273
-0.11352414 -0.040988337 0.019817242 -0.04009842 -0.04321163 -0.119863406 0.09305652 -0.08950272
-0.08016375 -0.015223506 0.22745948 0.112527564 0.060907558 0.068860315 0.038531125 0.10715359
0.14422248 0.14455372 -0.022382453 0.026933534 -0.08902607 -0.116434224 0.02007568 0.0021828574
0.03625788 0.05984075 0.07429786 -0.06395912 -0.025614955 -0.12278658 -0.10378258 0.070683666
-0.13311195 0.23873095 0.054602582 -0.08391984 0.08977489 0.02091861 -0.15609139 0.053543203
0.028947687 0.0800764 0.04023922 0.15388775 -0.06567462 0.066903494 -0.09299281 -0.09007076
0.10400178 -0.055525392 0.024467517 -0.10844485 0.06749852 -0.019581199 0.080144495 -0.05069115
-0.18039978 -0.046442658 0.19873668 0.00013897732 -0.14419495 -0.06993798 0.04747261 -0.13451399
0.016779136 -0.024381045 0.16230126 -0.09883085 0.029755013 -0.07444912 -0.10727469 -0.012282955
0.17677732 0.14065042 -0.0405057 0.03485687 0.011029207 0.047875702 -0.16406542 0.13769363
-0.014291036 0.038519107 -0.10889402 -0.04486154 -0.031824887 -0.0037467713 0.028783299 -0.031095322
0.11202325 0.053879526 -0.06651872 -0.033853907 0.018164465 -0.057703935 -0.03296164 0.11848841
-0.13999668 -0.060397666 -0.14199477 -0.11961862 0.045523163 0.014646601 0.08781128 0.030563608
0.0348247 -0.119757146 0.1263572 0.04338116 -0.027221356 -0.087150626 0.049273435 0.07129185
0.084996425 0.05211229 -0.046353303 0.106194474 -0.07521734 -0.06726972 0.041792165 -0.018238945
0.050738376 -0.15275536 -0.08240173 -0.15202078 -0.08572179 0.0822215 0.044843078 0.09721972
-0.08417873 0.23104674 -0.048252877 0.06816311 0.027194323 0.020655815 -0.016366396 0.02987281
-0.040172603 -0.12250392 0.0065524243 0.03154465 0.057251226 -0.01762904 -0.02111337 -0.08137595
0.021219939 0.006800778 -0.10152615 -0.096583866 0.15534182 -0.0847298 -0.015501289 -0.080508694
0.06032209 -0.05694463 0.09459055 -0.012626677 -0.007753187 0.07635125 0.12338465 -0.0661265
0.02367531 0.033069603 -0.09328445 0.025689451 0.07609532 -0.051375523 0.015160202 -0.047824465
0.12665106 -0.03864627 -0.13863592 -0.09515433 -0.1258425 0.04737852 0.018928353 0.1709128
0.026544442 0.090521276 0.118442886 -0.06685262 -0.042389974 0.17893657 0.08604613 -0.14199191
0.06824321 0.026071541 -0.039390314 -0.021582084 0.10217788 -0.014585014 -0.116262056 0.051130563
0.14157097 -0.002401192 0.039682347 -0.13358931 -0.044198208 -0.14417095 -0.12465748 0.110887565
0.09818471 -0.07998866 0.03331763 0.053749893 -0.01913975 -0.06399621 0.096403435 -0.0035563721
-0.09312556 0.008492712 0.010729616 0.023981612 -0.094923235 -0.055862214 -0.14875764 -0.10951217
00000000: 50af 073e 66ae cd3c d4ad 26bd f297 08be
00000010: e048 383e 773f c5bd 8f03 4cbe 3fe2 85bd
00000020: 8e4a ac3a f918 86bd 7e68 bebd 4762 3c3c
00000030: 1867 2c3e a389 17bd ab20 73bd d7a6 853c
00000040: 3179 b5bc 99a8 d93d be25 43bc f562 60bd
00000050: cf2a 993c 26c3 2e3e ba6f 85bc acfb 063e
00000060: 5246 64bc 09aa 60be 4069 8fbd 61ad 18bd
00000070: 1fa9 f2bd d26e 5c3b 6675 2fbd 29c6 203e
00000080: 9f6e d7bc d0d6 c6bd 37b6 9e3c 6bd1 913d
00000090: 6638 1d3d 5c11 8a3b f38c 8f3d 5be1 35bb
000000a0: 587f e8bd 63e3 27bd c557 a23c 3e3e 24bd
000000b0: aefe 30bd f27a f5bd 6b94 be3d 344d b7bd
000000c0: e42c a4bd 036c 79bc 23eb 683e da74 e63d
000000d0: 347a 793d a306 8d3d d0d2 1d3d 5773 db3d
000000e0: 0faf 133e e405 143e 685b b7bc b7a3 dc3c
000000f0: 4d53 b6bd 1175 eebd c175 a43c 450e 0f3b
00000100: 2583 143d 931b 753d 7a29 983d 00fd 82bd
00000110: 74d6 d1bc 8877 fbbd f68b d4bd 99c2 903d
00000120: 804e 08be e375 743e f5a6 5f3d 2ade abbd
00000130: e6db b73d 815d ab3c 6cd6 1fbe 1e50 5b3d
00000140: b323 ed3c 18ff a33d e1d1 243d c094 1d3e
00000150: 6a80 86bd b304 893d 0473 bebd 0577 b8bd
00000160: e3fe d43d 986e 63bd 1a70 c83c 5518 debd
00000170: aa3c 8a3d c068 a0bc cc22 a43d 86a1 4fbd
00000180: b8ba 38be a83a 3ebd a181 4b3e 71ba 1139
00000190: d7a7 13be a53b 8fbd a472 423d 09be 09be
000001a0: 6674 893c c2ba c7bc 4d32 263e d467 cabd
000001b0: c9c0 f33c c878 98bd d5b2 dbbd 733e 49bc
000001c0: 1d05 353e aa06 103e 4ee9 25bd 14c6 0e3d
000001d0: d9b3 343c 5019 443d c400 28be 8fff 0c3e
000001e0: f324 6abc 36c6 1d3d d403 dfbd bcc0 37bd
000001f0: d05a 02bd 648c 75bb f4ca eb3c 9ebb febc
00000200: 726c e53d c7b0 5c3d f73a 88bd 65aa 0abd
00000210: a5cd 943c f65a 6cbd c902 07bd 0daa f23d
00000220: 4a5b 0fbe 8b63 77bd 1467 11be 9bfa f4bd
00000230: 7f76 3a3d 4cf8 6f3c 66d6 b33d 8860 fa3c
00000240: 58a4 0e3d 3c43 f5bd c863 013e 71b0 313d
00000250: 52ff debc 077c b2bd f1d2 493d 7601 923d
00000260: 9b12 ae3d b273 553d f6dc 3dbd 7d7c d93d
00000270: 8c0b 9abd b5c4 89bd 432e 2b3d d769 95bc
00000280: 0bd3 4f3d e76b 1cbe 3dc2 a8bd 56ab 1bbe
00000290: e88e afbd bf63 a83d 60ad 373d 221b c73d
000002a0: e665 acbd 8497 6c3e cfa4 45bd 1a99 8b3d
000002b0: a1c6 de3c 6236 a93c d212 86bc d3b7 f43c
000002c0: 078c 24bd 56e3 fabd b8b5 d63b f734 013d
000002d0: 4380 6a3d c76a 90bc f2f5 acbc 6fa8 a6bd
000002e0: 70d5 ad3c 10d9 de3b f1ec cfbd c3cd c5bd
000002f0: ed11 1f3e d186 adbd 1ef9 7dbc bee1 a4bd
00000300: 4c14 773d c63e 69bd b1b8 c13d 1fe0 4ebc
00000310: 720e febb 0b5e 9c3d 17b1 fc3d 556d 87bd
00000320: b9f2 c13c fe73 073d eb0b bfbd af72 d23c
00000330: ddd7 9b3d 246f 52bd 7f62 783c 96e3 43bd
00000340: d1b0 013e 8d4b 1ebd 93f6 0dbe 46e0 c2bd
00000350: dbdc 00be fb0f 423d a20f 9b3c c403 2f3e
00000360: bb73 d93c 3863 b93d 2f92 f23d 07ea 88bd
00000370: 1ca1 2dbd 263b 373e f438 b03d 5466 11be
00000380: 19c3 8b3d fc93 d53c bd57 21bd e9cc b0bc
00000390: a342 d13d fcf5 6ebc cd1a eebd 486e 513d
000003a0: fbf7 103e 515d 1dbb f589 223d a3cb 08be
000003b0: 2e09 35bd 8da1 13be 6c4c ffbd 0519 e33d
000003c0: 1115 c93d 18d1 a3bd 1178 083d d928 5c3d
000003d0: f7ca 9cbc 7210 83bd 2a6f c53d 0612 69bb
000003e0: 9db8 bebd 0425 0b3c 45cb 2f3c 1675 c43c
000003f0: 1d67 c2bd c7cf 64bd ec53 18be eb47 e0bd

encoder.feature_extract.mlps.0.linears.0.bias f4 [128]
0.0059289965 0.0059482567 -0.0009998378 0.0026510924 -0.0062164934 -0.0013054649 0.0061159455 0.0043463493
-0.0046915845 -0.0038528477 0.003832974 0.0028847407 -0.004687038 0.0022118406 1.9882991e-05 -0.005831344
-0.0011871967 0.0069917906 0.0022600947 0.00091517816 0.00041346202 -0.0019147439 -0.002289338 -0.004104348
-0.0018100484 0.0034501052 0.0004915945 -0.0040960014 -0.0025540122 -0.0023749548 -0.002383681 0.00040504258
-0.005703046 0.0051275124 0.0045232824 -0.00375382 -0.005503919 -0.0008749709 0.0010148139 -0.008113524
0.0058284923 0.00471772 0.008047933 0.0057877162 -0.004625862 -0.01004193 0.005777856 0.00027777583
-0.0044799135 -0.0004976588 0.0025835112 0.0075228685 -0.0022036047 0.0057251547 -0.00501309 -0.0025940097
0.000369579 -0.0024679115 0.007886633 -0.0014894587 0.0011172667 0.0025340025 0.0041883085 0.001494184
-0.0004788124 0.0018949473 -0.0013473378 -0.00068400736 0.0061955373 -0.0010753055 0.003942728 -0.0077126594
-0.008925585 -0.0017127539 -0.0013507963 0.006130353 0.0069294213 0.0015135349 -0.001508199 0.0010335016
0.00053634145 0.0030294072 0.004868291 -0.0010252926 -0.0028630304 -0.00039395105 0.00085338217 0.0036132971
-0.0075881253 0.0034109403 0.00052233716 -0.0071040853 -0.0074865404 0.0012381254 0.0013525034 0.0012136673
-0.0005602781 -0.0012235006 0.007208621 -0.009362482 0.0021076726 0.0033811177 -0.0006479418 -0.0031751043
-0.00012893994 -0.0085737575 -0.0046581547 -0.0011932781 0.0074651004 0.004677118 -0.0006050862 0.005570913
-4.7467478e-05 0.0051628156 -0.0011564085 0.003955092 0.0018422179 -0.0016740045 0.0032024984 -0.0014391759
0.0061735045 0.0026257727 -0.00021173447 -0.0046972735 -0.0007992652 0.0018709633 0.007248187 -0.0044991467
00000000: 0748 c23b 98e9 c23b fd0c 83ba f3bd 2d3b
00000010: bab3 cbbb 221c abba 4568 c83b d26b 8e3b
00000020: ddbb 99bb 0f80 7cbb a232 7b3b eb0d 3d3b
00000030: b995 99bb 87f4 103b 66ca a637 dc14 bfbb
00000040: b69b 9bba 641b e53b 191e 143b 91e8 6f3a
00000050: efc5 d839 25f8 faba b808 16bb c47d 86bb
00000060: 253f edba 291b 623b 59de 003a c037 86bb
00000070: 3761 27bb 21a5 1bbb 8837 1cbb e55b d439
00000080: 9ee0 babb b104 a83b 0b38 943b a602 76bb
00000090: 385a b4bb 4e5e 65ba 8103 853a 96ee 04bc
000000a0: f0fc be3b 1b97 9a3b 7adb 033c e2a6 bd3b
000000b0: 8b94 97bb e886 24bc 2b54 bd3b 71a2 9139
000000c0: 3dcc 92bb 5175 02ba 2050 293b 6582 f63b
000000d0: 5a6a 10bb 149a bb3b d944 a4bb 4300 2abb
000000e0: 0ec4 c139 afbc 21bb f036 013c f139 c3ba
000000f0: 4071 923a 8211 263b 143e 893b 7fd8 c33a
00000100: 1d09 fbb9 e15f f83a 2899 b0ba f54e 33ba
00000110: ef03 cb3b 44f1 8cba 0032 813b 7aba fcbb
00000120: 9e3c 12bc 7c7e e0ba 340d b1ba 21e1 c83b
00000130: 3310 e33b ce61 c63a c3ae c5ba 8f76 873a
00000140: 4499 0c3a 0589 463b 2f86 9f3b 1c63 86ba
00000150: aea1 3bbb 378b ceb9 82b5 5f3a 11cd 6c3b
00000160: cfa5 f8bb 158a 5f3b 74ed 083a 63c9 e8bb
00000170: a751 f5bb 9848 a23a 7c46 b13a eb13 9f3a
00000180: a0df 12ba de5d a0ba 4c36 ec3b 1865 19bc
00000190: e120 0a3b be95 5d3b a3da 29ba 6915 50bb
000001a0: 0d34 07b9 f278 0cbc 6fa3 98bb c567 9cba
000001b0: cd9d f43b 8242 993b a69e 1eba 358c b63b
000001c0: d117 47b8 d62c a93b a192 97ba b799 813b
000001d0: 9376 f13a 456a dbba 02e1 513b bba2 bcba
000001e0: 1c4b ca3b 2815 2c3b 0a05 5eb9 96eb 99bb
000001f0: c885 51ba 1c3b f53a 3382 ed3b 946d 93bb

encoder.feature_extract.mlps.0.linears.1.weight f4 [128, 128]
-0.0884152 -0.15847184 0.036021072 -0.0052025127 0.06534451 -0.05484582 -0.09600408 -0.045494024
0.116416246 -0.0004274628 -0.16558717 -0.04122453 0.06995593 0.011883872 -0.0068028965 -0.01690813
0.0068363617 0.13746838 -0.060672354 -0.20933121 0.0038554973 0.055353504 0.10644655 -0.07183638
0.114119254 0.11535169 0.13387185 -0.046575096 -0.11254877 0.09596018 0.04568382 0.07347771
0.017665127 -0.04138855 -0.03448949 -0.0690627 -0.28495646 0.063689746 0.054345727 -0.1360017
-0.08961743 0.14542031 0.11918018 0.31800273 0.0013104691 0.064329706 0.020800387 -0.06513609
-0.08701872 -0.13284853 0.0049294014 0.07813763 -0.04043793 -0.09074908 -0.050716937 0.011511867
-0.05077547 0.036984857 0.011823647 -0.12370441 0.015394237 0.04534835 -0.00934222 -0.014696202
0.010982371 0.07171223 -0.07805257 0.09892382 0.21625789 -0.166052 0.027623946 0.12130446
-0.061365247 -0.09098598 0.05494448 -0.03560707 -0.09885036 0.06511356 0.109420165 -0.02418338
-0.089147046 0.13329056 0.0019040654 -0.0026584568 0.006160117 0.005366826 -0.035213117 -0.037988905
0.10937788 -0.02178977 -0.012613076 -0.19154796 -0.13613488 -0.01132048 0.06445785 -0.029892888
0.11356289 -0.054838724 0.04226089 0.06261553 0.056607936 0.018548865 0.08622611 -0.026882028
0.048871875 -0.06808314 -0.00035431614 0.07698153 0.08305303 0.05642716 -0.12420901 -0.16510245
-0.0426783 0.07871085 0.046610396 0.0311646 -0.034922134 0.07536459 -0.0317935 0.048301384
0.049958106 -0.10484949 -0.0058566886 0.065142006 -0.09598678 -0.023806622 0.043159015 0.03182393
0.038573086 0.17000243 0.006220746 0.02165474 0.006599283 -0.029077264 0.080541484 -0.06938256
-0.07433609 -0.07598486 0.08893672 -0.06927683 -0.04125976 0.036914494 -0.10442758 -0.0058956454
0.07105266 -0.24863641 -0.05247297 -0.13123146 -0.073476404 0.023417067 -0.16285647 -0.018738931
0.030378165 0.040044975 -0.03810567 -0.12877727 0.017194577 0.09727791 -0.06564952 -0.017845463
0.13463035 -0.060845673 0.06821807 0.11104588 0.039784793 0.024109686 -0.063545056 -0.047898266
-0.019729458 0.0018603859 0.054591455 0.118698135 -0.03072072 -0.06719253 0.0033370815 0.042373445
0.083640054 0.037480537 0.05438377 0.03996612 -0.041721996 0.20173052 0.05251847 -0.031759147
-0.038050365 -0.059526507 -0.07004885 -0.09105153 -0.06424079 -0.028301148 -0.21798567 0.07930528
-0.010039197 0.1503905 0.070887566 0.040475328 0.064520024 -0.037603874 0.06411866 0.101066135
-0.01045629 -0.11626018 0.00748651 -0.049303375 0.027946621 -0.035427228 -0.07939177 0.0043757856
0.12181262 -0.056754034 0.005968557 0.06015032 -0.0039154985 -0.07177135 0.033223607 -0.13998857
-0.014612982 -0.026644953 0.0020882876 0.05398275 0.00798324 -0.106305905 0.08538058 0.08642192
0.080496304 -0.015834855 0.0603338 -0.024524918 -0.19324821 0.16369465 0.024412801 -0.07146962
0.15582116 -0.1261573 -0.022909226 -0.042922925 -0.03886779 0.02323969 0.009722599 0.08005857
-0.16099831 -0.035095297 0.19302636 -0.1672956 -0.18145218 -0.17963327 -0.20762786 0.21504998
0.110379726 0.02272261 0.033732828 0.074494176 -0.05686891 0.06941831 0.022934832 0.052682757
00000000: 0713 b5bd 7146 22be d58a 133d d779 aabb
00000010: 58d3 853d 03a6 60bd c99d c4bd f157 3abd
00000020: a46b ee3d 161d e0b9 af8f 29be 0edb 28bd
00000030: 0e45 8f3d 92b4 423c d5ea debb eb82 8abc
00000040: 8f03 e03b 83c4 0c3e 9383 78bd ec5a 56be
00000050: 83ac 7c3b 5bba 623d a600 da3d f41e 93bd
00000060: 5bb7 e93d 823d ec3d b415 093e 87c5 3ebd
00000070: f87f e6bd c586 c43d f51e 3b3d 7b7b 963d
00000080: 75b6 903c 0a87 29bd da44 0dbd bf70 8dbd
00000090: d0e5 91be c56f 823d a099 5e3d 0844 0bbe
000000a0: 5889 b7bd 10e9 143e bd14 f43d 41d1 a23e
000000b0: 0cc4 ab3a 4bbf 833d 9365 aa3c 1266 85bd
000000c0: df36 b2bd 7209 08be d186 a13b 9f06 a03d
000000d0: 3ea2 25bd a7da b9bd 90bc 4fbd 459c 3c3c
000000e0: f0f9 4fbd 6f7d 173d f8b7 413c bd58 fdbd
000000f0: 1c38 7c3c 31bf 393d 1c10 19bc 57c8 70bc
00000100: 67ef 333c dddd 923d 07da 9fbd 9298 ca3d
00000110: b572 5d3e 8909 2abe 9d4b e23c 796e f83d
00000120: 205a 7bbd dc56 babd 770d 613d b8d8 11bd
00000130: 0f72 cabd 425a 853d ae17 e03d 391c c6bc
00000140: ba92 b6bd 527d 083e d591 f93a 8139 2ebb
00000150: cfda c93b 33dc af3b a13b 10bd 419a 1bbd
00000160: 8301 e03d 7680 b2bc 13a7 4ebc 2625 44be
00000170: f166 0bbe 8979 39bc 7a02 843d eee1 f4bc
00000180: a993 e83d 929e 60bd c119 2d3d 923c 803d
00000190: b9dd 673d caf3 973c 5197 b03d b337 dcbc
000001a0: e02d 483d 2c6f 8bbd 82c3 b9b9 7ea8 9d3d
000001b0: b517 aa3d 2a20 673d 4b61 febd 9e10 29be
000001c0: 71cf 2ebd 2733 a13d 8bea 3e3d e74c ff3c
000001d0: 830a 0fbd c058 9a3d e739 02bd acd7 453d
000001e0: dfa0 4c3d 54bb d6bd 77e9 bfbb 2c69 853d
000001f0: b894 c4bd 1b06 c3bc 82c7 303d cf59 023d
00000200: d0fe 1d3d 1e15 2e3e 66d7 cb3b 4865 b13c
00000210: cc3e d83b 7133 eebc eff2 a43d 7218 8ebd
00000220: 853d 98bd f39d 9bbd 7424 b63d 03e1 8dbd
00000230: feff 28bd a733 173d 21de d5bd 4230 c1bb
00000240: 0f84 913d 8b9a 7ebe e6ed 56bd 8a61 06be
00000250: cc7a 96bd 26d5 bf3c d9c3 26be 6382 99bc
00000260: a1db f83c 3306 243d b114 1cbd 30de 03be
00000270: a4db 8c3c a439 c73d 4173 86bd a630 92bc
00000280: 8adc 093e 5039 79bd eab5 8b3d 066c e33d
00000290: 61f5 223d ad81 c53c e923 82bd f930 44bd
000002a0: ac9f a1bc 31d8 f33a 4a9b 5f3d 0218 f33d
000002b0: 05aa fbbc 3d9c 89bd f0b2 5a3b c78f 2d3d
000002c0: 7a4b ab3d 3185 193d 84c1 5e3d 84b3 233d
000002d0: afe4 2abd 7292 4e3e 9b1d 573d e115 02bd
000002e0: b3da 1bbd 11d2 73bd c575 8fbd 3979 babd
000002f0: ad90 83bd cfd7 e7bc a337 5fbe cf6a a23d
00000300: 727b 24bc f8ff 193e 802d 913d 75c9 253d
00000310: 1323 843d 8506 1abd a550 833d c3fb ce3d
00000320: dc50 2bbc d119 eebd 6651 f53b 56f2 49bd
00000330: 50f0 e43c 241c 11bd 2798 a2bd c062 8f3b
00000340: e578 f93d eb76 68bd e393 c33b 2f60 763d
00000350: 954d 80bb dcfc 92bd 7a15 083d 2a59 0fbe
00000360: 4a6b 6fbc 8446 dabc a7db 083b 041d 5d3d
00000370: 23cc 023c e9b6 d9bd 03dc ae3d fafd b03d
00000380: 3fdb a43d 19b8 81bc 9320 773d 7be8 c8bc
00000390: dce2 45be 929f 273e 5bfd c73c aa5e 92bd
000003a0: 958f 1f3e 612f 01be 21ac bbbc f3cf 2fbd
000003b0: d533 1fbd 2a61 be3c 894b 1f3c bff5 a33d
000003c0: bedc 24be 16c0 0fbd b4a8 453e 8a4f 2bbe
000003d0: 9ace 39be c9f1 37be 669c 54be 1036 5c3e
000003e0: c40e e23d c424 ba3c 6f2b 0a3d 6790 983d
000003f0: 60ef 68bd 302b 8e3d d4e1 bb3c e0c9 573d

encoder.feature_extract.mlps.0.linears.1.bias f4 [128]
-0.0023125994 0.0018026063 0.00080293015 0.0031369973 -0.0011129953 -7.1975137e-06 0.0019671177 7.438237e-05
0.0027130677 0.004879494 -0.0005338665 0.007795646 -0.0056617083 0.0037299548 -0.013836356 0.0017068386
-0.0014569081 -0.002344714 -0.009537736 0.0011522897 -0.006805538 0.0030852922 -0.0010193451 0.0056823376
0.0050780573 -0.0014070603 0.0036894847 -0.00078788924 -0.0001977169 -0.003034724 0.004320333 -0.0029161887
0.008331716 -0.007089224 0.0011073631 -0.0010475524 -0.0075585507 -0.0051921513 0.0053164703 0.0013690984
0.010202669 -0.006421046 0.0054022036 0.004618987 -0.0029732909 -0.0021972163 -0.0009799962 -0.0008148855
0.008029884 0.0019503796 -0.00083481125 0.0028375764 -0.007008108 -0.00096876966 0.0020758423 -0.0003490713
0.0050873607 0.0010644951 -0.004482537 -0.006269712 -0.0027241067 -0.0010296708 0.00032708162 0.00239069
-6.670288e-05 -0.0003673506 -0.0031690197 0.007710775 0.006234048 0.0037387623 -0.0038003542 0.005952182
-0.0020875025 0.0056486228 -0.005020591 0.0065272083 -0.00088967994 -0.0022867508 0.007398376 0.0008271514
0.002195719 -0.0011431597 0.007593104 -0.0031693175 -0.007717246 0.00219719 0.00018380673 -0.004780701
0.0036108927 -0.0056028357 -0.0024473986 -0.006559471 0.0056688073 0.00089444657 -0.0024854136 0.0019233174
-0.0023237998 -0.0041773976 0.003672315 -0.0037012694 -0.0028778554 0.0035392244 -0.0097105885 -0.00084885303
0.0046294015 -0.0022568027 0.0032986088 0.0139551 0.0032103804 0.009856816 -0.0070794816 0.0014674645
0.0027222133 7.504414e-05 -0.007488245 0.0021503132 0.011122572 -0.0012218866 0.0033574128 0.0017611121
-0.003923085 -0.0022862104 0.00778865 0.0051742317 0.00017768821 0.0042752745 0.0019411725 -0.00043619482
00000000: fb8e 17bb 6e45 ec3a bb7b 523a 1596 4d3b
00000010: ede1 91ba 2c82 f1b6 c2ea 003b bbfd 9b38
00000020: b9cd 313b 2ae4 9f3b 2df3 0bba 9e72 ff3b
00000030: da85 b9bb 4272 743b e2b1 62bc 00b8 df3a
00000040: b9f5 beba c6a9 19bb 2a44 1cbc 6d08 973a
00000050: fe00 dfbb 9d32 4a3b 8c9b 85ba e732 ba3b
00000060: d565 a63b 1c6d b8ba 48cb 713b 5a8a 4eba
00000070: 3a52 4fb9 38e2 46bb 9491 8d3b 871d 3fbb
00000080: c081 083c b94c e8bb f124 913a 074e 89ba
00000090: b8ad f7bb ec22 aabb c935 ae3b 5273 b33a
000000a0: 1829 273c a367 d2bb f804 b13b df5a 973b
000000b0: 8bdb 42bb 2cff 0fbb 3773 80ba 0a9e 55ba
000000c0: c68f 033c e1a3 ff3a 3cd7 5aba a2f6 393b
000000d0: 45a4 e5bb 08f5 7dba db0a 083b 8f03 b7b9
000000e0: e0b3 a63b 8786 8b3a 3fe2 92bb 2872 cdbb
000000f0: ed86 32bb 05f6 86ba 277c ab39 1fad 1c3b
00000100: d6e2 8bb8 f798 c0b9 54af 4fbb abaa fc3b
00000110: fc46 cc3b 0606 753b 5d0f 79bb 860a c33b
00000120: 7bce 08bb 1518 b93b c583 a4bb 31e2 d53b
00000130: 6939 69ba 50dd 15bb 136e f23b 31d5 583a
00000140: 0de6 0f3b 13d6 95ba 93cf f83b 53b4 4fbb
00000150: f4e0 fcbb bbfe 0f3b 3ebc 4039 6da7 9cbb
00000160: baa4 6c3b fe97 b7bb 8964 20bb d5f0 d6bb
00000170: 67c1 b93b 4b79 6a3a 52e2 22bb d317 fc3a
00000180: e44a 18bb 8de2 88bb 39ab 703b ff90 72bb
00000190: 679a 3cbb 55f2 673b 2919 1fbc 9085 5eba
000001a0: 3cb2 973b dee6 13bb 792d 583b efa3 643c
000001b0: 3f65 523b 7c7e 213c fffa e7bb f057 c03a
000001c0: 2967 323b 0461 9d38 f45f f5bb 45ec 0c3b
000001d0: 733b 363c b627 a0ba 0a08 5c3b 1ed5 e63a
000001e0: 398d 80bb 3fd4 15bb ef37 ff3b 9a8c a93b
000001f0: d151 3a39 9a17 8c3b f16e fe3a 14b1 e4b9

encoder.feature_extract.mlps.0.linears.2.weight f4 [128, 128]
0.026799038 -0.0015757001 -0.10364566 0.10610303 0.09381634 0.024412354 -0.04503567 -0.04997957
-0.031432595 -0.09646971 -0.051936243 0.049577605 -0.1324811 0.0179374 -0.0476725 0.07166808
-0.08701441 0.095681615 -0.022473004 -0.00021117326 0.017232075 0.024198236 0.0041901385 0.0793763
0.0072518317 0.057289347 0.046250187 -0.057325866 -0.1282627 -0.038557716 -0.050815076 -0.124927804
-0.06528936 0.13772662 -0.039881233 0.034212504 0.086626776 -0.17903157 0.035698935 0.025640842
-0.12714544 0.02147919 0.03485768 0.14805709 -0.088027515 -0.07344703 0.0047417767 0.08334528
0.17962004 -0.09438314 -0.038792692 -0.08087199 -0.16862562 0.20630471 -0.02493184 -0.045063175
0.062876 0.08872195 -0.086632155 0.12652849 -0.0676284 0.052816298 -0.04631559 0.04719809
0.06778059 -0.08933637 -0.009751945 0.12959997 -0.02856184 -0.028126271 -0.02830435 -0.16935322
-0.12985697 0.0047893566 0.088403486 0.073830195 0.021540094 0.04140753 -0.1966683 0.13829742
-0.080194436 -0.05654196 -0.12354143 0.019429447 -0.08673992 0.01076112 0.20412852 0.12562408
0.12138049 -0.011566621 0.03076703 -0.0083163995 0.009991308 0.0116318995 -0.09136931 -0.007408168
-0.06382518 -0.10470889 0.15470022 0.07941853 -0.0037398832 0.03527244 -0.0792112 -0.09587595
-0.049753115 -0.033179794 -0.111119665 0.02300651 0.068866834 -0.066673726 0.07102553 0.009924343
0.09826213 -0.09416101 0.07983874 0.14434122 0.03495788 -0.2166109 -0.054161955 0.21625313
0.12346152 0.011590519 0.047199756 0.017639287 -0.057099447 0.1395267 -0.069937944 0.10581077
-0.12966862 0.003213664 -0.056012418 0.013085234 0.048675515 0.1910854 -0.04514545 -0.12219727
0.021499703 -0.002360378 -0.042162105 -0.062442932 -0.04105696 0.023556402 0.13064308 -0.10016343
-0.07839723 0.019142123 -0.05857416 0.07906965 -0.09815165 0.10564129 0.22536811 0.084212296
0.0025253051 0.01624062 0.015986858 0.07919893 -0.00037096554 -0.07003767 -0.05820256 0.115157686
0.13487655 -0.018199474 -0.0495617 0.109285094 -0.13802159 -0.01149782 0.15152843 -0.05845517
0.15809108 0.0014828106 0.13710642 -0.079102956 0.11397233 -0.07822887 -0.14327139 0.09483614
-0.014311013 -0.064657144 0.1674997 0.06835274 -0.008109089 0.026226157 -0.13890536 -0.018124495
0.055333715 0.096371874 0.06476605 0.048967503 -0.04794204 0.032778867 -0.0024018933 -0.0044951513
-0.054044444 -0.04345998 0.1465638 0.15324463 -0.057282306 0.09774937 0.031139735 0.099008895
-0.009003381 0.047563124 -0.0442773 -0.056385014 -0.14295419 0.040380683 0.021814998 0.069766544
-0.029616188 -0.1757809 -0.012463776 -0.019575847 0.036343183 0.098276824 -0.024493644 0.13490148
-0.03682709 -0.08063053 0.123180404 -0.035555985 -0.012960998 0.053664226 -0.13735315 0.040519934
0.10007518 0.101300314 0.011685973 -0.048110165 0.057825685 0.070201874 -0.07071628 -0.09641909
0.0915321 0.09564398 0.09993443 0.04391218 0.11679551 0.19463767 -0.025885094 0.031154417
-0.060428113 0.028639233 -0.010508527 -0.16623037 0.15079449 0.060210712 -0.0645029 0.1951094
-0.02542104 0.047511067 -0.16514878 0.010585284 -0.16823436 -0.07696767 0.0022636561 -0.044515703
00000000: a889 db3c b987 ceba 2d44 d4bd 8c4c d93d
00000010: c822 c03d 6bfc c73c 5377 38bd 61b7 4cbd
00000020: 77bf 00bd e991 c5bd 19bb 54bd e311 4b3d
00000030: 20a9 07be 74f1 923c 3d44 43bd b7c6 923d
00000040: 9c34 b2bd b9f4 c33d 4e19 b8bc 646e 5db9
00000050: 482a 8d3c 613b c63c 6e4d 893b 0b90 a23d
00000060: c6a0 ed3b 3ca8 6a3d d670 3d3d 87ce 6abd
00000070: 4c57 03be b2ee 1dbd 7823 50bd 26da ffbd
00000080: 6eb6 85bd 3508 0d3e 815a 23bd 6922 0c3d
00000090: 6169 b13d 0d54 37be 0c39 123d be0c d23c
000000a0: 6a32 02be 20f5 af3c edc6 0e3d 479c 173e
000000b0: c547 b4bd 656b 96bd e860 9b3b eeb0 aa3d
000000c0: 51ee 373e f34b c1bd 16e5 1ebd 37a0 a5bd
000000d0: 32ac 2cbe 8b41 533e dc3d ccbc 2a94 38bd
000000e0: 22c5 803d dbb3 b53d 336c b1bd af90 013e
000000f0: c280 8abd e755 583d 6bb5 3dbd c952 413d
00000100: 8dd0 8a3d fdf5 b6bd 9fc6 1fbc dbb5 043e
00000110: 85fa e9bc 1169 e6bc 86de e7bc ee6a 2dbe
00000120: 3af9 04be 09f0 9c3b e30c b53d 4934 973d
00000130: da74 b03c f19a 293d 6a63 49be d79d 0d3e
00000140: fb3c a4bd 8b98 67bd 4a03 fdbd 812a 9f3c
00000150: b3a4 b1bd 694f 303c 1107 513e 99a3 003e
00000160: 5696 f83d ed81 3dbc 230b fc3c 8241 08bc
00000170: 95b2 233c b993 3e3c d51f bbbd 38c0 f2bb
00000180: c7b6 82bd 9d71 d6bd bc69 1e3e 2fa6 a23d
00000190: d418 75bb d679 103d 7b39 a2bd 9c5a c4bd
000001a0: ecc9 4bbd 89e7 07bd b592 e3bd 2678 bc3c
000001b0: 0e0a 8d3d 3c8c 88bd d575 913d b699 223c
000001c0: a83d c93d 7dd7 c0bd 7e82 a33d 2fce 133e
000001d0: fe2f 0f3d 3fcf 5dbe edd8 5dbd 7671 5d3e
000001e0: 65d9 fc3d 29e6 3d3c 8854 413d 4480 903c
000001f0: 1ce1 69bd 16e0 0e3e a03b 8fbd 51b3 d83d
00000200: dac7 04be 569c 523b 476d 65bd 7363 563c
00000210: fa5f 473d e4ab 433e 6fea 38bd 9042 fabd
00000220: 2520 b03c 92b0 1abb 2cb2 2cbd 29c4 7fbd
00000230: 582b 28bd 5bf9 c03c 4dc7 053e 7c22 cdbd
00000240: ba8e a0bd f1cf 9c3c 75eb 6fbd 45ef a13d
00000250: bb03 c9bd 765a d83d e6c6 663e 7f77 ac3d
00000260: 977f 253b 0c0b 853c dff6 823c 0c33 a23d
00000270: 277e c2b9 e96f 8fbd cf65 6ebd cbd7 eb3d
00000280: 141d 0a3e 1017 95bc 3601 4bbd ddd0 df3d
00000290: 8855 0dbe 5a61 3cbc 452a 1b3e b06e 6fbd
000002a0: a1e2 213e de5a c23a a065 0c3e bb00 a2bd
000002b0: 536a e93d 7536 a0bd bcb5 12be 7339 c23d
000002c0: bd78 6abc f76a 84bd 0b85 2b3e 85fc 8b3d
000002d0: fcdb 04bc 3dd8 d63c 353d 0ebe d279 94bc
000002e0: 9ba5 623d 9e5e c53d 10a4 843d 2692 483d
000002f0: df5e 44bd 2243 063d 1569 1dbb 104c 93bb
00000300: b55d 5dbd 1803 32bd d214 163e 29ec 1c3e
00000310: daa0 6abd d230 c83d c218 ff3c 2dc5 ca3d
00000320: eb82 13bc 8dd1 423d 1d5c 35bd f9f3 66bd
00000330: 9562 12be 3766 253d 5eb5 b23c c3e1 8e3d
00000340: a69d f2bc e9ff 33be de34 4cbc 875d a0bc
00000350: 97dc 143d 5c45 c93d e5a6 c8bc 9d23 0a3e
00000360: 01d8 16bd 9f21 a5bd 0246 fc3d 27a3 11bd
00000370: 5e5a 54bc 05cf 5b3d 4ea6 0cbe 3bf8 253d
00000380: 37f4 cc3d 8a76 cf3d 8676 3f3c 2a0f 45bd
00000390: a0da 6c3d 00c6 8f3d b2d3 90bd 5f77 c5bd
000003a0: 2f75 bb3d fee0 c33d 6caa cc3d 42dd 333d
000003b0: 7c32 ef3d 194f 473e fa0c d4bc 8c37 ff3c
000003c0: 7883 77bd d39c ea3c f52b 2cbc 4b38 2abe
000003d0: df69 1a3e 829f 763d 191a 84bd c2ca 473e
000003e0: c93f d0bc f79a 423d c31c 29be e66d 2d3c
000003f0: a145 2cbe 3aa1 9dbd d959 143b 1956 36bd

encoder.feature_extract.mlps.0.linears.2.bias f4 [128]
-0.0024259526 0.0013666716 -0.006636871 0.006035705 -0.00031589431 -0.0027397338 0.0017217539 0.0040193414
0.0029674647 -0.013517717 -0.0014533312 -0.00033139327 -0.0020249663 -0.009179006 0.010325531 -0.00089031144
0.0044056 -0.0010969115 0.005241609 0.006092044 -0.0008432959 0.0047670244 0.0014245374 0.001821703
0.003934888 0.0028460827 -0.011433236 0.0005325095 -0.0047348943 0.0018852632 0.004610527 -0.0051948773
0.005546971 0.0069560325 -0.001502634 0.00512531 0.0038829034 -0.006533304 -0.0022811326 -0.006382227
-0.004366502 0.0029445526 -0.003778482 0.0008120169 0.00014469537 -0.0020159553 -0.002482466 -0.0017859025
-0.0017859049 0.004669357 -0.00060010003 -0.0037774271 -0.0039205183 0.0025011045 0.0042790277 -0.013470257
0.010290119 -0.00071759906 0.0010465842 0.0011268895 -0.0020009424 -0.00073687994 -0.005720067 -0.003254963
0.0048621893 -0.0025599918 -0.0063573034 0.004441724 0.007707051 -0.0044385344 -0.005702757 -0.0062814
-0.00074444653 0.0077752247 -0.0009867144 -0.008607995 0.0021150229 0.002461634 -0.0026246074 0.0003073844
-0.00096505636 -0.005889885 0.004006674 -0.00081793056 0.004592907 0.0023084967 0.00046634517 -0.009959699
0.0016665569 0.0027197634 9.553807e-05 -0.00031173378 -0.0040151477 -0.0055446243 0.006094605 -0.00774887
0.0016398232 0.0006053975 -0.0053809257 -0.0043003787 0.00069883885 0.0046065906 -0.0038756689 -5.9078393e-05
-0.0038288091 0.0036803717 0.0054896246 0.00059716834 0.006807715 0.0004584812 0.0052912333 -0.0023647624
-0.0039188145 0.007635742 0.004074403 -0.0048705232 0.00072503614 0.0045053423 -0.0025468606 0.0063550174
0.0002851237 -0.0027156223 -0.008659155 0.0060173646 0.0015506779 -0.0015373138 -0.0028212569 -0.0020536229
00000000: bbfc 1ebb e421 b33a 1c7a d9bb 2ac7 c53b
00000010: 9e9e a5b9 1b8d 33bb 79ac e13a aeb4 833b
00000020: cc79 423b 6a79 5dbc b47d beba dabe adb9
00000030: 4cb5 04bb 8b63 16bc 6a2c 293c ca63 69ba
00000040: da5c 903b 3ec6 8fba cec1 ab3b c59f c73b
00000050: a110 5dba b334 9c3b 8bb7 ba3a 36c6 ee3a
00000060: 3cf0 803b 5885 3a3b 7852 3bbc 1c98 0b3a
00000070: 2c27 9bbb f01a f73a e713 973b ca39 aabb
00000080: 5ec3 b53b 6eef e33b 08f4 c4ba 37f2 a73b
00000090: 4f78 7e3b 5415 d6bb 0e7f 15bb 0022 d1bb
000000a0: e014 8fbb 65f9 403b 69a0 77bb 88dd 543a
000000b0: 5eb9 1739 1e1e 04bb deb0 22bb f214 eaba
000000c0: 0615 eaba 6801 993b 0850 1dba b68e 77bb
000000d0: b177 80bb 92e9 233b 1637 8c3b 5ab2 5cbc
000000e0: e397 283c 421d 3cba 8a2d 893a 23b4 933a
000000f0: 3e22 03bb 2d2b 41ba 666f bbbb 3851 55bb
00000100: 0053 9f3b 89c5 27bb ed50 d0bb e28b 913b
00000110: 6e8b fc3b 2071 91bb 31de babb 34d4 cdbb
00000120: f626 43ba 50c7 fe3b a454 81ba 8c08 0dbc
00000130: 329c 0a3b 5e53 213b 9b01 2cbb 7028 a139
00000140: d6fb 7cba f0ff c0bb 6b4a 833b 646a 56ba
00000150: 1980 963b 264a 173b ca7f f439 012e 23bc
00000160: 5f70 da3a 0f3e 323b 9c5b c838 3370 a3b9
00000170: 8091 83bb aeaf b5bb 41b5 c73b 3cea fdbb
00000180: 56ef d63a 8ab3 1e3a 7a52 b0bb 31ea 8cbb
00000190: 4832 373a e2f2 963b effe 7dbb f1ca 77b8
000001a0: c2ec 7abb 6432 713b 4fe2 b33b 4a8b 1c3a
000001b0: 4113 df3b 4e60 f039 1562 ad3b 21fa 1abb
000001c0: 6669 80bb 3f35 fa3b 9282 853b e998 9fbb
000001d0: 5a10 3e3a 8da1 933b 3be9 26bb c03d d03b
000001e0: a87c 9539 95f8 31bb 21df 0dbc 502d c53b
000001f0: 1e40 cb3a b17f c9ba d6e4 38bb 1396 06bb

encoder.feature_extract.mlps.0.batch_norms.0.weight f4 [128]
1.0069007 0.9980978 1.0021089 0.9948005 1.0012028 0.99704266 1.0049908 1.0041609
0.99825346 1.003295 1.0092652 0.99763846 1.0039804 0.9980523 0.9992118 1.0019438
1.0023458 1.0040429 1.0020761 1.0019276 0.9964768 0.99452806 1.0037495 0.99504673
0.9971169 1.004569 1.0040312 0.99591166 0.99863875 1.0042527 0.9974721 0.9985752
0.997935 1.0024899 0.99891883 0.99831444 1.0042963 0.9927521 1.0011361 0.9950328
0.99814916 1.0029265 0.9987552 1.0040275 0.9952808 0.99778056 1.0078405 0.99693394
0.99806285 1.0006683 1.0016953 1.0027599 1.0051664 1.0049369 0.99596655 0.9976094
0.9997524 0.997847 0.9963479 1.003161 0.9966903 0.99981666 1.0021858 1.0024753
1.0026366 0.9956164 0.9979401 0.99810493 0.9992884 1.0023158 1.005042 0.9922269
1.005524 0.9975759 1.0011628 1.0025518 1.0078301 1.0021771 0.99982846 0.9974017
0.99600124 0.99502444 0.9986929 0.9957084 1.0006168 0.9959288 0.99948585 1.0016521
1.0033193 1.0015082 0.9998342 1.000205 0.9991573 1.0032431 0.99912 0.99475634
1.0032427 0.997272 1.000415 0.99869454 1.0042855 0.9963889 1.0027369 0.9971543
0.9985849 1.0052651 1.003951 0.99795747 1.0037622 1.0020037 0.9948269 1.0082123
1.0008644 0.9977438 0.997158 0.99245024 1.0029366 0.99130076 0.9969588 1.0022774
1.0081978 1.004195 1.0065279 0.9958281 0.9994117 0.99776757 0.9961328 1.0060878
00000000: 1fe2 803f 5683 7f3f 1b45 803f 3fab 7e3f
00000010: 6a27 803f 303e 7f3f 8aa3 803f 5888 803f
00000020: 8a8d 7f3f f86b 803f 9a2f 813f 3c65 7f3f
00000030: 6e82 803f 5b80 7f3f 58cc 7f3f b23f 803f
00000040: de4c 803f 7a84 803f 0844 803f 2a3f 803f
00000050: 1b19 7f3f 6499 7e3f dd7a 803f 62bb 7e3f
00000060: 0e43 7f3f b895 803f 1884 803f 11f4 7e3f
00000070: caa6 7f3f 5a8b 803f 555a 7f3f a0a2 7f3f
00000080: ab78 7f3f 9751 803f 25b9 7f3f 8991 7f3f
00000090: c88c 803f 0025 7e3f 3a25 803f 78ba 7e3f
000000a0: b486 7f3f e55f 803f 6cae 7f3f f983 803f
000000b0: b9ca 7e3f 8c6e 7f3f eb00 813f 1037 7f3f
000000c0: 0c81 7f3f e615 803f 8d37 803f 705a 803f
000000d0: 4ba9 803f c6a1 803f aaf7 7e3f 5463 7f3f
000000e0: c6ef 7f3f e772 7f3f a810 7f3f 9467 803f
000000f0: 1827 7f3f fcf3 7f3f a047 803f 1c51 803f
00000100: 6556 803f b7e0 7e3f 0179 7f3f ce83 7f3f
00000110: 5dd1 7f3f e24b 803f 37a5 803f 9502 7e3f
00000120: 03b5 803f 2261 7f3f 1a26 803f 9e53 803f
00000130: 9400 813f 5747 803f c2f4 7f3f b855 7f3f
00000140: f0f9 7e3f ecb9 7e3f 57aa 7f3f bfe6 7e3f
00000150: 3614 803f 31f5 7e3f 4ede 7f3f 2336 803f
00000160: c46c 803f 6c31 803f 22f5 7f3f b806 803f
00000170: c6c8 7f3f 456a 803f 54c6 7f3f 5aa8 7e3f
00000180: 426a 803f 384d 7f3f 990d 803f 72aa 7f3f
00000190: 6d8c 803f 5813 7f3f af59 803f 8145 7f3f
000001a0: 43a3 7f3f 87ac 803f 7781 803f 247a 7f3f
000001b0: 487b 803f a841 803f faac 7e3f 1a0d 813f
000001c0: 531c 803f 236c 7f3f bf45 7f3f 3811 7e3f
000001d0: 3a60 803f e3c5 7d3f b138 7f3f a04a 803f
000001e0: a00c 813f 7689 803f e8d5 803f 97ee 7e3f
000001f0: 72d9 7f3f b26d 7f3f 8f02 7f3f 7cc7 803f

encoder.feature_extract.mlps.0.batch_norms.0.bias f4 [128]
0.0051260414 0.000849784 0.0015566073 -0.0017197293 -0.004931333 -0.0067823385 0.0010750882 0.00067294424
0.0018056504 -0.0027519732 0.006801264 -0.004142645 0.002461949 0.006893796 0.0038671321 0.000642837
0.0033881015 0.0032631124 0.00062101154 0.0026780872 -0.004447206 -0.0016305223 0.003872719 -0.0018722422
-0.0023958625 0.011633124 0.0016770303 -0.0016719421 -0.0025397518 0.0037171047 0.005924741 -0.0007093019
0.0011143056 0.0017895356 -0.0072977333 0.009081184 4.3798394e-05 -0.0052881353 -0.00090227614 -0.0021809642
0.00025949618 0.0019185565 -0.0034856952 -0.0012575637 -0.0026970995 -0.0025016344 0.00726874 -0.0027199422
-0.00039334194 -0.0035053364 0.0017594093 0.0062873927 0.00712198 0.002078333 -0.005221441 -0.001516077
-0.004025049 -0.003957517 0.0025677623 0.005458961 0.001952409 0.0015595794 0.0029214309 0.00017533146
-0.0002449739 -0.0047097704 -0.003507467 -0.0029795696 -0.001803298 -0.0008655851 0.00040949602 -0.003932709
0.0040480522 -0.0028302565 -0.00495904 0.001485079 0.0066221077 0.00310088 -0.0022811687 -0.0055302163
-0.003851911 -0.005389695 -0.0007573509 -0.0072596837 -0.00065827154 -0.0062736575 -0.0026750881 0.01071639
0.004733892 0.0035384917 -0.0002864504 0.0037445684 0.0014111685 0.00478029 -0.0013916463 -0.0049033514
-0.0008056968 -0.004059098 -0.005222538 -0.004639103 0.0046147043 -0.0030776223 -0.0011565905 0.0011873756
0.0038924164 0.0042882366 0.002622898 0.00067030883 0.008134563 -0.0019397574 -0.005089699 0.0058176555
0.00064537657 0.0034336639 -0.0006570744 -0.009639638 0.006398136 -0.008069176 -0.0032846723 -0.0063906633
0.008233665 0.006460884 0.006840504 -0.0017390049 -0.0021112063 -0.00285736 -5.6063665e-05 0.005715564
00000000: 5af8 a73b 0ac4 5e3a 1307 cc3a 8a68 e1ba
00000010: 0597 a1bb 613e debb f9e9 8c3a 8668 303a
00000020: 93ab ec3a 735a 34bb 23dd de3b 06bf 87bb
00000030: a658 213b 5ae5 e13b b66f 7d3b 1084 283a
00000040: e90a 5e3b f1d9 553b 61cb 223a d982 2f3b
00000050: deb9 91bb 40b7 d5ba 71cd 7d3b 0666 f5ba
00000060: e703 1dbb dc98 3e3c cdcf db3a 1125 dbba
00000070: f771 26bb ab9a 733b 5424 c23b 72f0 39ba
00000080: e40d 923a da8e ea3a d321 efbb 3fc9 143c
00000090: 2bb4 3738 1848 adbb ba86 6cba 82ee 0ebb
000000a0: fd0c 8839 1378 fb3a 4370 64bb d6d4 a4ba
000000b0: d2c1 30bb 76f2 23bb 9c2e ee3b 0f41 32bb
000000c0: 7639 ceb9 c9b9 65bb fb9b e63a 7906 ce3b
000000d0: 805f e93b a434 083b 9f18 abbb 1ab7 c6ba
000000e0: 8fe4 83bb 0fae 81bb e747 283b 15e1 b23b
000000f0: fae7 ff3a cd6a cc3a 7a75 3f3b 2ed9 3739
00000100: d76f 80b9 6b54 9abb 88dd 65bb e244 43bb
00000110: a45c ecba 6fe8 62ba a0b1 d639 f4dd 80bb
00000120: 86a5 843b d37b 39bb 717f a2bb fba6 c23a
00000130: 44fe d83b 2238 4b3b a97f 15bb d136 b5bb
00000140: 5870 7cbb 0a9c b0bb f588 46ba a4e2 edbb
00000150: db8f 2cba 4193 cdbb 8850 2fbb cc93 2f3c
00000160: c41e 9b3b 0ae6 673b b92e 96b9 6f67 753b
00000170: f5f6 b83a fba3 9c3b e767 b6ba 4bac a0bb
00000180: 6635 53ba 2f02 85bb d321 abbb 9e03 98bb
00000190: f236 973b efb1 49bb bd98 97ba b7a1 9b3a
000001a0: e917 7f3b 5684 8c3b ede4 2b3b aab7 2f3a
000001b0: d546 053c 753f feba 7dc7 a6bb 08a2 be3b
000001c0: 7d2e 293a 5207 613b 843f 2cba 92ef 1dbc
000001d0: 74a7 d13b 9434 04bc a843 57bb c568 d1bb
000001e0: 7ee6 063c d3b5 d33b 4e26 e03b 52ef e3ba
000001f0: 2a5c 0abb 8c42 3bbb e725 6bb8 a049 bb3b

encoder.feature_extract.mlps.0.batch_norms.0.running_mean f4 [128]
0.045017414 -0.121915 -0.068131484 -0.08158452 -0.06641835 -0.0018926127 -0.007731647 0.012244252
0.09061553 -0.055786435 0.16341068 0.12244211 -0.20861523 -0.040575195 -0.011135876 0.13374981
-0.09385289 0.07495854 0.010762673 0.00679047 -0.051030815 -0.03649489 -0.11798424 -0.07541544
-0.02548916 0.13455138 0.07129867 0.099319234 0.14805529 0.019760543 -0.12042983 0.004832826
0.053823497 -0.044893373 -0.11174906 0.04891843 0.19855313 -0.07166631 0.031100355 0.022464
0.083129615 0.15142019 0.061820623 -0.08843267 -0.043298133 -0.10706745 -0.004151508 -0.036808603
-0.06899879 0.023542652 -0.07923822 -0.110766396 -0.022660293 -0.06585344 -0.070063576 -0.026824398
0.15129766 0.024791075 0.053347707 0.105702356 0.034906447 -0.05192367 -0.0030948396 -0.023707686
0.06266858 -0.037316743 -0.05235592 0.10457809 -0.06632635 -0.12843022 0.022922033 0.03102783
-0.11513311 0.053481415 -0.08496557 0.07777909 0.065195784 0.093831226 -0.072570756 -0.010751523
-0.1341757 -0.14702505 0.07034974 0.09399189 0.19999805 0.05663612 0.023166914 0.029182212
-0.1253515 0.033278648 -0.008840403 -0.084660575 0.0013359344 -0.10001307 -0.058064453 -0.07486809
-0.04579645 -0.0014821268 0.076659866 -0.055475183 0.035441395 0.015838759 -0.0388524 -0.045437813
-0.020516077 -0.11297221 0.023876058 0.15863952 0.09410566 -0.042699553 0.1592465 -0.11497065
0.032197572 -0.019472023 -0.0023074055 0.03710084 0.016662648 -0.12004818 -0.1350189 0.08578319
-0.055750046 0.05618372 -0.061509307 0.0036236532 -0.004175249 0.02526932 -0.05566944 -0.1233512
00000000: 2e64 383d 92ae f9bd 8588 8bbd c915 a7bd
00000010: 5806 88bd 8b11 f8ba c259 fdbb 1d9c 483c
00000020: a394 b93d 5180 64bd 2155 273e eec2 fa3d
00000030: 3b9f 55be 2d32 26bd 4073 36bc b6f5 083e
00000040: f235 c0bd dd83 993d ec55 303c 9782 de3b
00000050: b005 51bd aa7b 15bd b9a1 f1bd 6973 9abd
00000060: a5ce d0bc d6c7 093e 0905 923d e267 cb3d
00000070: ce9b 173e dde0 a13c eaa3 f6bd af5c 9e3b
00000080: 0776 5c3d 1de2 37bd b1dc e4bd b15e 483d
00000090: 8351 4b3e c9c5 92bd 2cc6 fe3c 6c06 b83c
000000a0: dc3f aa3d e50d 1b3e 9f37 7d3d 301c b5bd
000000b0: 6259 31bd 2e46 dbbd 6009 88bb 9ec4 16bd
000000c0: 3d4f 8dbd 85dc c03c a647 a2bd 7ed9 e2bd
000000d0: 14a2 b9bc 2bde 86bd 7e7d 8fbd d7be dbbc
000000e0: c6ed 1a3e a716 cb3c 2083 5a3d 7a7a d83d
000000f0: 10fa 0e3d eaad 54bd cbd2 4abb 9f36 c2bc
00000100: 6258 803d 71d9 18bd 2973 56bd 0a2d d63d
00000110: 1cd6 87bd 3683 03be fdc6 bb3c 132e fe3c
00000120: e8ca ebbd 540f 5b3d 6e02 aebd a54a 9f3d
00000130: 5e85 853d 962a c03d fa9f 94bd 2827 30bc
00000140: 5b65 09be bc8d 16be 8613 903d d27e c03d
00000150: 4acc 4c3e 47fb 673d 8ac8 bd3c 890f ef3c
00000160: 255c 00be 314f 083d 56d7 10bc 8662 adbd
00000170: 851a af3a a7d3 ccbd fed4 6dbd 7154 99bd
00000180: 0f95 3bbd ec43 c2ba d9ff 9c3d f239 63bd
00000190: ff2a 113d 49c0 813c b223 1fbd 001d 3abd
000001a0: 5511 a8bc f95d e7bd b997 c33c 6672 223e
000001b0: 78ba c03d bae5 2ebd 8411 233e bb75 ebbd
000001c0: 9ae1 033d cb83 9fbc d737 17bb 0df7 173d
000001d0: 1b80 883c d2db f5bd 6542 0abe 19af af3d
000001e0: 295a 64bd e620 663d 2ff1 7bbd d07a 6d3b
000001f0: 87d0 88bb 9b01 cf3c a405 64bd 8e9f fcbd

encoder.feature_extract.mlps.0.batch_norms.0.running_var f4 [128]
8.303189e-05 0.0008723315 0.0010371874 0.00023796086 0.00023403975 8.245662e-05 0.00037263668 5.519945e-05
0.00065996125 0.00015123081 0.0015207097 0.0009842474 0.0025526632 5.7143152e-05 9.757682e-05 0.0014752314
0.0004670504 0.00025108104 7.285327e-06 3.5392448e-05 8.508308e-05 0.00010470028 0.0006926593 0.0006470369
3.039496e-05 0.0005314666 0.00020127858 0.0005537052 0.00087057496 5.3923653e-05 0.0005891609 1.9959034e-06
0.00016141601 0.00034685232 0.00076189946 0.0004782786 0.0038037184 0.0004874745 3.9508963e-05 0.0004687814
0.00030904892 0.001176802 0.0003532715 0.00033630917 0.00034531907 0.00069152255 7.482008e-05 0.0002570966
0.00016562472 0.000251045 0.0002066963 0.0011160397 4.1758823e-05 0.0010008537 0.00034801886 5.6536104e-05
0.000800779 0.000103035636 0.00011502687 0.0016267733 9.2147915e-05 9.215728e-05 4.9550813e-06 7.463122e-05
0.00012305035 4.7685e-05 0.00020243553 0.0008418798 0.00016253135 0.0005825564 1.22080355e-05 4.895094e-05
0.00086408394 9.9955134e-05 0.0003715296 0.00022448259 0.000109386376 0.0007181606 0.00018556198 4.3584558e-05
0.0014279695 0.0010588821 0.0005466673 0.00044263553 0.0033069614 0.0003289406 1.7206312e-05 5.9333346e-05
0.0007306232 5.0300507e-05 5.6826877e-05 0.00032927908 2.6436467e-06 0.00038571714 0.0007919854 0.0003292584
0.00026396933 8.82381e-05 0.00032758655 0.0004884274 4.8031547e-05 0.00013655868 0.00025395417 0.00013916768
0.00027577078 0.00036353595 0.00033539804 0.0015244943 0.0004031839 0.00048149255 0.0018906229 0.0013713151
3.283259e-05 1.9040614e-05 0.00010623661 0.00034032506 0.00013440405 0.0010777481 0.0010185362 0.0010271429
0.0005568788 0.00012978059 0.00020115403 6.6369495e-05 7.4117015e-05 2.7038226e-05 0.00012618156 0.00048269826
00000000: 6821 ae38 2dad 643a 3cf2 873a 2285 7939
00000010: 9168 7539 90ec ac38 735e c339 f585 6738
00000020: 4001 2d3a b693 1e39 8d52 c73a dd01 813a
00000030: 954a 273b feac 6f38 28a2 cc38 8d5c c13a
00000040: 72de f439 87a3 8339 7b74 f436 5a72 1438
00000050: a16e b238 8992 db38 9493 353a e99d 293a
00000060: aef8 fe37 1f52 0b3a 4f0e 5339 8726 113a
00000070: 4c37 643a 152c 6238 eb71 1a3a 5cf1 0536
00000080: c841 2939 bbd9 b539 35ba 473a 78c1 fa39
00000090: ce47 793b b893 ff39 6db6 2538 c6c6 f539
000000a0: d807 a239 ec3e 9a3a 4c37 b939 a752 b039
000000b0: f10b b539 4b47 353a b9e8 9c38 ecca 8639
000000c0: 8cab 2d39 b19e 8339 9ebc 5839 1448 923a
000000d0: 3226 2f38 142f 833a 4d76 b639 2e21 6d38
000000e0: 5eeb 513a d614 d838 953a f138 7439 d53a
000000f0: 893f c138 9044 c138 d343 a636 5583 9c38
00000100: 1407 0139 6101 4838 e044 5439 99b1 5c3a
00000110: 2d6d 2a39 b3b6 183a 1dd1 4c37 ac50 4d38
00000120: b183 623a 019f d138 dcc9 c239 1663 6b39
00000130: 5d66 e538 f142 3c3a 6a93 4239 90ce 3638
00000140: b52a bb3a 30ca 8a3a 394e 0f3a 8911 e839
00000150: 9bb9 583b a975 ac39 4656 9037 b2dc 7838
00000160: 4b87 3f3a c2f9 5238 6559 6e38 17a3 ac39
00000170: 8169 3136 143a ca39 3e9d 4f3a 50a0 ac39
00000180: 5d65 8a39 780c b938 ecbf ab39 cf09 003a
00000190: 7b75 4938 3131 0f39 2725 8539 8aed 1139
000001a0: 5495 9039 f898 be39 5dd8 af39 8ad1 c73a
000001b0: 6d62 d339 d670 fc39 c7ce f73a b3bd b33a
000001c0: bab5 0938 68b9 9f37 58cb de38 a86d b239
000001d0: d0ee 0c39 3a43 8d3a 6780 853a 32a1 863a
000001e0: 81fb 113a b615 0839 e0ec 5239 da2f 8b38
000001f0: 456f 9b38 26d0 e237 9b4f 0439 aa12 fd39

encoder.feature_extract.mlps.0.batch_norms.1.weight f4 [128]
1.0033609 1.0004065 1.0008982 0.9997094 0.995542 0.99043345 0.9992823 0.9991174
1.0038087 0.9915387 0.99758106 1.0062618 0.99945 1.0081136 1.0019815 0.99597836
1.0006028 1.0057036 1.0070564 0.99972326 0.99798304 0.9942169 1.0011388 0.9959204
0.99868697 1.0010387 1.005947 1.0087241 1.002257 1.0019084 1.000864 1.000674
1.0053138 0.9903362 0.99879843 1.0020297 0.99700737 0.9984417 0.9907317 0.9950284
1.0128577 1.0011846 0.99578404 0.9990187 0.9895677 0.9973488 0.9955696 0.99502635
0.9918724 1.0035443 1.0005106 1.0033355 1.0020435 1.0011667 0.9928762 1.0059792
0.9957087 0.99993813 0.9974764 0.9957616 0.99408513 1.0031606 1.0000316 1.0049447
1.0058681 0.9934429 0.9943935 1.000339 1.0044129 1.0057024 0.9956072 0.9930911
1.0033002 0.9990054 1.0052633 1.0071142 1.0000147 1.0031661 1.0017428 1.000234
0.9998372 0.9980581 0.99574465 1.0019804 0.99489695 0.99855983 0.9985416 0.9999994
1.0022167 1.0027333 0.9988718 1.0082774 0.9963516 1.0035588 1.0054898 0.9974673
0.998087 0.9993633 0.9962205 0.9969907 1.0077522 0.9952738 1.0085185 1.0010146
1.0017809 1.0009958 1.0052184 0.9995632 1.0066938 1.0056465 1.009131 0.9958141
0.9980198 0.9958166 1.0073828 0.99392426 0.9953939 1.0070592 0.9882228 1.0020303
1.0023819 1.006002 1.0046592 0.9944048 1.0017214 1.0003793 0.99627215 0.99040824
00000000: 216e 803f 520d 803f 6f1d 803f f5ec 7f3f
00000010: d7db 7e3f 0c8d 7d3f f7d0 7f3f 28c6 7f3f
00000020: ce7c 803f 7bd5 7d3f 7961 7f3f 30cd 803f
00000030: f5db 7f3f de09 813f ee40 803f 70f8 7e3f
00000040: c113 803f e5ba 803f 39e7 803f dded 7f3f
00000050: d17b 7f3f 0085 7e3f 5125 803f a4f4 7e3f
00000060: f3a9 7f3f 0922 803f dfc2 803f df1d 813f
00000070: f549 803f 893e 803f 501c 803f 1616 803f
00000080: 1fae 803f ac86 7d3f 41b1 7f3f 8242 803f
00000090: e03b 7f3f e099 7f3f 98a0 7d3f 2eba 7e3f
000000a0: 52a5 813f d126 803f b4eb 7e3f b1bf 7f3f
000000b0: 4f54 7d3f 4052 7f3f a6dd 7e3f 0cba 7e3f
000000c0: 59eb 7d3f 2474 803f bb10 803f 4c6d 803f
000000d0: f642 803f 3b26 803f 222d 7e3f edc3 803f
000000e0: c4e6 7e3f f2fb 7f3f 9d5a 7f3f 3bea 7e3f
000000f0: 5d7c 7e3f 9167 803f 0901 803f 07a2 803f
00000100: 49c0 803f 4652 7e3f 9390 7e3f 1c0b 803f
00000110: 9a90 803f dbba 803f 1de0 7e3f 383b 7e3f
00000120: 246c 803f d1be 7f3f 78ac 803f 1ee9 803f
00000130: 7b00 803f bf67 803f 1c39 803f ab07 803f
00000140: 55f5 7f3f bc80 7f3f 1fe9 7e3f e540 803f
00000150: 91b1 7e3f 9ea1 7f3f 6ca0 7f3f f6ff 7f3f
00000160: a348 803f 9159 803f 10b6 7f3f 3c0f 813f
00000170: e610 7f3f 9d74 803f e4b3 803f 045a 7f3f
00000180: a182 7f3f 46d6 7f3f 4f08 7f3f c83a 7f3f
00000190: 06fe 803f 44ca 7e3f 2217 813f 3f21 803f
000001a0: 5b3a 803f a120 803f ffaa 803f 60e3 7f3f
000001b0: 58db 803f 06b9 803f 342b 813f aced 7e3f
000001c0: 3a7e 7f3f d6ed 7e3f ebf1 803f d271 7e3f
000001d0: 22d2 7e3f 51e7 803f 2bfc 7c3f 8742 803f
000001e0: 0d4e 803f acc4 803f ac98 803f 5091 7e3f
000001f0: 6838 803f 6e0c 803f b10b 7f3f 658b 7d3f
